car_ml/Assets/HTS/HTS_SC/car_ppo.onnx (onnx, 217832 bytes, 13 tensors)

network_body.observation_encoder.processors.0.normalizer.running_mean f4 [15]
0.90178084 0.09822277 0.40586755 0.75873077 0.24127096 0.5254073 0.9238427 0.07615773
0.42422426 0.0066098506 0.99330807 0.9969223 0.40397048 0.5960385 0.8195081
00000000: 1cdb 663f 0529 c93d dfcd cf3e 2e3c 423f
00000010: bc0f 773e 1881 063f f580 6c3f 95f8 9b3d
00000020: ec33 d93e 7297 d83b 7049 7e3f 4d36 7f3f
00000030: 38d5 ce3e fb95 183f 48cb 513f

network_body.observation_encoder.processors.1.normalizer.running_mean f4 [15]
0.70776695 0.29223353 0.6991372 0.64873034 0.3512486 0.7383518 0.6340903 0.365896
0.75232685 0.0032559761 0.99683696 0.99845403 0.46129754 0.5387077 0.87716013
00000000: 3730 353f a29f 953e a8fa 323f 3113 263f
00000010: dbd6 b33e a004 3d3f be53 223f b856 bb3e
00000020: 7e98 403f 3762 553b b530 7f3f af9a 7f3f
00000030: 312f ec3e bfe8 093f 918d 603f

network_body._body_endoder.seq_layers.0.weight f4 [128, 30]
-0.08710974 -0.23487093 0.057359774 -0.14549156 0.1741899 0.011086757 0.27717292 0.23493892
-0.14473648 0.19351836 -0.19135016 -0.13086429 -0.23175141 0.10158398 -0.3312916 0.21819837
-0.11944379 -0.31328046 -0.1272148 -0.36231261 -0.06724518 0.20896977 0.11880352 -0.230524
0.20725714 0.2549574 -0.047526218 0.15442182 -0.015231274 -0.13290739 0.12703004 0.009079533
0.24424429 0.05430197 0.051688313 0.008824584 -0.04788787 0.26644942 -0.0007375203 0.024862524
0.010310523 -0.29146612 0.34215572 -0.4620144 -0.21929064 -0.16375966 -0.19261844 -0.031676713
-0.0055092224 -0.15535976 0.10646134 -0.21041498 0.074136384 0.31408474 0.024748579 -0.014809994
-0.4102928 -0.0013949679 -0.00066571427 0.05979566 -0.2287534 -0.21145329 0.13331205 0.062279087
-0.10179423 -0.120939784 -0.15145017 0.026319837 -0.059229802 -0.15746775 -0.03528088 -0.3642008
0.03421083 -0.05876198 -0.2021948 -0.24531952 -0.07421271 0.039325744 0.2239734 0.117814444
0.20365874 0.21473168 -0.13713324 -0.049728207 -0.07492333 0.035030138 -0.16910382 -0.03960129
-0.085339755 -0.32361618 -0.014503673 -0.2435197 -0.11851062 0.041576512 -0.050938718 -0.037467487
0.15246554 -0.07493122 -0.02257323 -0.15038888 -0.09832851 0.05355653 -0.014062695 0.3153773
0.16929615 -0.053618774 -0.2383684 -0.009153805 -0.24101274 0.2677034 0.07104595 -0.22567597
-0.053966433 -0.021477956 0.17287408 0.11481802 0.11400969 0.18580838 0.2191914 0.09133087
-0.14070946 0.013578235 -0.2027011 0.22162381 -0.05962771 -0.10509242 -0.12324741 -0.08668396
0.12233085 -0.057196293 0.036246996 -0.14297561 -0.03564693 -0.4336239 -0.0027200836 0.011397271
-0.20517331 0.15076338 -0.002573803 0.07725229 -0.029899608 0.28353173 -0.024884794 -0.19674802
-0.12756105 0.0033395381 -0.4123978 0.022640418 0.08742906 0.12232639 0.184814 0.028022747
-0.30855978 -0.36859068 0.15676165 0.0858549 -0.15183468 0.2349062 0.070439816 0.11484304
-0.0933891 -0.21458052 -0.1136775 -0.1855539 0.20317958 -0.04955247 0.08223873 -0.108233266
-0.15342131 -0.17047277 -0.36791912 -0.057116568 -0.1781313 -0.11178488 0.15854952 -0.033786498
0.036189467 0.028185505 0.015998717 0.2703866 -0.020525176 -0.23771603 -0.13818054 -0.49005857
-0.2589523 -0.1753282 0.22929864 0.10053052 0.19569734 -0.19142748 -0.10029558 -0.29716653
-0.25862283 0.11710227 -0.09419863 -0.19890201 -0.012913591 -0.024802446 0.05352585 -0.049004428
-0.21765327 -0.0026963071 -0.030122455 0.27337992 -0.07451277 0.37304738 0.14307816 0.08751849
0.35926193 -0.16140784 0.35956484 -0.10675458 -0.02062288 0.10298459 0.03478951 -0.0940075
-0.39109823 -0.08032608 -0.042357773 -0.17479628 0.1259041 -0.058870755 0.020063022 0.1017811
0.27114072 -0.053119116 -0.13735774 0.24620211 0.06332839 -0.17974177 0.16006657 0.09654777
-0.1486277 -0.1638033 0.04036452 -0.029906293 0.39982155 -0.117169835 0.042852566 -0.15380162
0.2249123 -0.29584956 -0.42421845 -0.2259258 0.16339464 0.24827656 0.029256875 0.16782911
-0.18691917 -0.24806173 -0.048877724 -0.08885838 0.1439908 -0.113485225 0.13755098 -0.3909948
00000000: 9766 b2bd 0182 70be 15f2 6a3d bdfb 14be
00000010: d65e 323e 3ba5 353c 9ce9 8d3e d493 703e
00000020: cd35 14be ad29 463e 4cf1 43be 4a01 06be
00000030: 3e50 6dbe 430b d03d 0d9f a9be 656f 5f3e
00000040: f29e f4bd 4c66 a0be 9944 02be 0a81 b9be
00000050: d7b7 89bd 2cfc 553e 434f f33d 7c0e 6cbe
00000060: 373b 543e c789 823e daaa 42bd c120 1e3e
00000070: 988c 79bc e018 08be 2a14 023e 52c2 143c
00000080: 2d1b 7a3e be6b 5e3d 20b7 533d fd94 103c
00000090: 1226 44bd 0f6c 883e 2656 41ba 7eac cb3c
000000a0: 78ed 283c 0c3b 95be 092f af3e 278d ecbe
000000b0: ba8d 60be 9db0 27be c53d 45be 71bf 01bd
000000c0: b586 b4bb a116 1fbe 6708 da3d 0677 57be
000000d0: d1d4 973d b7cf a03e 88bd ca3c 9ea5 72bc
000000e0: e611 d2be 5bd7 b6ba 5483 2eba 4bec 743d
000000f0: 553e 6abe 3687 58be f482 083e 5b18 7f3d
00000100: 7e79 d0bd 47af f7bd c115 1bbe b39c d73c
00000110: f39a 72bd 3a3f 21be af82 10bd 8778 babe
00000120: a820 0c3d 67b0 70bd 270c 4fbe 0a35 7bbe
00000130: d5fc 97bd 0814 213d 4859 653e b348 f13d
00000140: eb8b 503e 9fe2 5b3e a86c 0cbe ceaf 4bbd
00000150: 6771 99bd c37b 0f3d 8d29 2dbe f634 22bd
00000160: 9cc6 aebd 05b1 a5be d0a0 6dbc 3a5d 79be
00000170: b2b5 f2bd 224c 2a3d 1ea5 50bd 8277 19bd
00000180: ed1f 1c3e 8a75 99bd 7feb b8bc 8bff 19be
00000190: 7560 c9bd 185e 5b3d 3867 66bc 2279 a13e
000001a0: f85b 2d3e 5c9f 5bbd d916 74be d7f9 15bc
000001b0: 0bcc 76be 6c10 893e 8a80 913d 9a17 67be
000001c0: e80b 5dbd 8af2 afbc e705 313e b625 eb3d
000001d0: ea7d e93d 8d44 3e3e b673 603e ae0b bb3d
000001e0: 2416 10be 3f77 5e3c e190 4fbe 5af1 623e
000001f0: 303c 74bd b23a d7bd 2369 fcbd 5c87 b1bd
00000200: 9988 fa3d a946 6abd bb77 143d 3368 12be
00000210: 8402 12bd f403 debe 6e43 32bb 9fbb 3a3c
00000220: f418 52be b761 1a3e 40ad 28bb 7336 9e3d
00000230: 06f0 f4bc 122b 913e 32db cbbc 5078 49be
00000240: 5d9f 02be 27dc 5a3b ce25 d3be 6678 b93c
00000250: 020e b33d 4286 fa3d e23f 3d3e f68f e53c
00000260: 8cfb 9dbe ebb7 bcbe 2086 203e b2d4 af3d
00000270: 8d7a 1bbe 408b 703e c042 903d d432 eb3d
00000280: c942 bfbd ffba 5bbe c0cf e8bd d701 3ebe
00000290: 4f0e 503e 88f7 4abd c76c a83d 67a9 ddbd
000002a0: 7a1a 1dbe 6a90 2ebe e55f bcbe 10f3 69bd
000002b0: 0d68 36be 79ef e4bd ce5a 223e b663 0abd
000002c0: 683b 143d 4ae5 e63c be0f 833c 1d70 8a3e
000002d0: 6a24 a8bc d56b 73be 337f 0dbe f5e8 fabe
000002e0: 6595 84be 3c89 33be 43cd 6a3e f2e2 cd3d
000002f0: e264 483e 9105 44be c567 cdbd 3626 98be
00000300: 366a 84be 51d3 ef3d 36eb c0bd f8ac 4bbe
00000310: 8793 53bc 802e cbbc ec3d 5b3d deb8 48bd
00000320: 80e0 5ebe 87b4 30bb 5ec3 f6bc 74f8 8b3e
00000330: 279a 98bd 1100 bf3e 1583 123e e53c b33d
00000340: 2ef1 b73e 1948 25be e218 b83e 25a2 dabd
00000350: 50f1 a8bc 96e9 d23d 727f 0e3d 0187 c0bd
00000360: 073e c8be 0082 a4bd 587f 2dbd ccfd 32be
00000370: 01ed 003e 7622 71bd 355b a43c 9c72 d03d
00000380: f5d2 8a3e 6e93 59bd 82a7 0cbe 681c 7c3e
00000390: 51b2 813d 3a0e 38be 7ee8 233e d6ba c53d
000003a0: dc31 18be 0dbc 27be 4455 253d 0bfe f4bc
000003b0: 69b5 cc3e bdf6 efbd 2c86 2f3d 2c7e 1dbe
000003c0: 694f 663e 9879 97be 2933 d9be 1859 67be
000003d0: ed50 273e 363c 7e3e 1dac ef3c 65db 2b3e
000003e0: bd67 3fbe e503 7ebe 0234 48bd 62fb b5bd
000003f0: 5372 133e f16a e8bd 2ada 0c3e 7830 c8be

network_body._body_endoder.seq_layers.0.bias f4 [128]
-0.0068831556 -0.003436695 -0.047388963 -0.015862882 -0.041697282 -0.045050487 -0.02892618 -0.017943507
0.000718837 -0.0715666 0.01886972 0.013166792 -0.039069127 -0.013866824 -0.022978347 -0.030667225
-0.08893546 -0.060317554 0.0063481256 -0.043407895 0.014791522 0.018700862 0.021151531 -0.022110946
0.03549503 -0.005760743 0.0062579955 -0.06174671 -0.024142398 -0.021403003 -0.013051444 0.00031024634
-0.025765298 0.007406332 -0.034783054 -0.06490222 0.0032772173 -0.022248585 -0.029349193 -0.018918049
-0.041222375 0.027633812 -0.0714221 -0.010473994 -0.0072614984 0.016920006 -0.027698288 0.0021865505
0.010677769 0.018285442 -0.021350805 0.0186356 -0.056828607 0.027919158 -0.013905591 -0.025862686
-0.05602398 0.012466322 -0.065871865 -0.024469038 0.0032387017 -0.044521682 -0.04550611 0.01435987
-0.066761255 -0.029585201 -0.06521388 -0.010985809 -0.0050056316 0.009286666 0.031063106 -0.018349906
-0.026814586 -0.037232786 -0.025280587 -0.02533293 -0.034628775 -0.033460725 -0.02594201 -0.008757762
-0.012915969 0.0063095796 -0.012792804 -0.060569543 -0.014297517 0.004166572 0.012186874 -0.04430309
0.01381577 -0.038434416 -0.00092718157 -0.01171558 0.034697443 -0.05769563 -0.03321747 0.026001602
-0.03948979 0.035016213 -0.04095894 0.0015624283 -0.07210672 0.028800692 -0.028667752 -0.013543509
-0.008579431 0.0043629603 0.005808836 -0.00096376106 0.0035712328 -0.011944187 -0.016319871 -0.011020992
0.02594425 -0.04861079 0.026256176 -0.05639539 0.0009318189 0.009093683 0.0013053905 -0.0042421706
-0.006757339 0.006578118 -0.042075332 -0.0053003235 -0.047942996 -0.021352598 -0.027996883 -0.020093871
00000000: 188c e1bb 2d3a 61bb ee1a 42bd e0f2 81bc
00000010: c5ca 2abd dc86 38bd 99f6 ecbc 43fe 92bc
00000020: 5670 3c3a 8291 92bd ac94 9a3c 87b9 573c
00000030: f306 20bd ad31 63bc 163d bcbc d539 fbbc
00000040: cb23 b6bd 8a0f 77bd f003 d03b 7acc 31bd
00000050: 2458 723c 8d32 993c fa45 ad3c 0422 b5bc
00000060: 3d63 113d 9dc4 bcbb df0f cd3b 1eea 7cbd
00000070: 47c6 c5bc 5a55 afbc b9d5 55bc 8fa8 a239
00000080: bf11 d3bc d1b0 f23b ad78 0ebd 75eb 84bd
00000090: 95c6 563b aa42 b6bc b86d f0bc 06fa 9abc
000000a0: cbd8 28bd 4e60 e23c c045 92bd 1d9b 2bbc
000000b0: ddf1 edbb d39b 8a3c 85e7 e2bc 3b4c 0f3b
000000c0: cff1 2e3c 5acb 953c e2e7 aebc b0a9 983c
000000d0: 1dc5 68bd b8b6 e43c 47d4 63bc fcdd d3bc
000000e0: 6779 65bd 8b3f 4c3c d4e7 86bd 4b73 c8bc
000000f0: 6640 543b 5e5c 36bd 9d64 3abd a945 6b3c
00000100: 20ba 88bd aa5c f2bc db8e 85bd d3fd 33bc
00000110: 4806 a4bb 1a27 183c 0e78 fe3c 8b52 96bc
00000120: 43aa dbbc 6881 18bd 3c19 cfbc 0187 cfbc
00000130: e7d6 0dbd 1d0e 09bd 5784 d4bc b77c 0fbc
00000140: 809d 53bc 97c0 ce3b e998 51bc c517 78bd
00000150: 2240 6abc bd87 883b 74ab 473c 2877 35bd
00000160: 8a5b 623c 686d 1dbd 1a0e 73ba b4f2 3fbc
00000170: e81e 0e3d 4152 6cbd 0b0f 08bd 5001 d53c
00000180: 0cc0 21bd 296d 0f3d 90c4 27bd 65ca cc3a
00000190: b0ac 93bd 6eef eb3c a2d8 eabc 98e5 5dbc
000001a0: be90 0cbc 2af7 8e3b 0c58 be3b e9a4 7cba
000001b0: 580b 6a3b 8db1 43bc 40b1 85bc 6491 34bc
000001c0: 0989 d43c 1c1c 47bd 3117 d73c dafe 66bd
000001d0: 4f45 743a acfd 143c a319 ab3a e801 8bbb
000001e0: ab6c ddbb 418d d73b 2f57 2cbd 56ae adbb
000001f0: e05f 44bd a5eb aebc b859 e5bc e79b a4bc

network_body._body_endoder.seq_layers.2.weight f4 [128, 128]
-0.049087916 -0.055079963 -0.040243883 -0.00932304 0.11339283 0.09965713 -0.06497791 -0.12527111
-0.1757176 0.07806671 0.06542762 -0.17260711 -0.039794035 -0.11035516 0.06387234 0.062313966
-0.0020149446 -0.046841636 -0.025345033 0.25045192 -0.14291453 -0.14593554 -0.035564613 -0.052914366
0.05008183 -0.051948898 0.10945791 0.034354743 -0.120543085 -0.07665515 -0.074436404 -0.096560344
0.04577924 0.0038950555 0.104668505 0.09409014 -0.007554262 -0.034132484 0.0010111602 -0.012305157
-0.04834507 0.015193006 -0.016622266 -0.12488822 -0.00058494776 0.109244294 0.027472228 0.031657342
-0.14130828 0.046275187 -0.08591849 0.07392122 -0.036102448 -0.0035084514 0.033171058 -0.07952113
-0.1502552 0.09866466 0.11753121 0.069565006 0.0829023 -0.1867784 -0.038244892 -0.014274114
0.017356165 -0.006203494 -0.089608006 0.026605796 -0.05687321 -0.14570013 -0.049264625 -0.014596626
0.062960185 -0.048251793 -0.11784357 0.12220512 -0.124228954 -0.07942928 -0.051962316 -0.2810009
-0.026003458 0.04869819 -0.048188776 0.04540313 -0.23786616 -0.15176784 -0.113750935 -0.1186719
0.06373157 -0.029520841 0.07278772 -0.11598929 0.03280863 0.10004082 0.10134417 -0.08304928
-0.089011826 -0.0131624825 0.08238795 -0.0047742906 0.031263467 -0.13424271 0.14570342 -0.110943004
-0.039616894 -0.12967445 0.07444539 0.05322996 0.099523194 0.07102962 0.0055592214 -0.03657241
-0.012490442 -0.10561757 0.01000418 0.085678056 -0.062366936 0.13362528 0.070376605 -0.03932828
0.082849994 -0.039269693 0.021638652 -0.09160226 0.061018247 -0.105864964 -0.15222318 -0.1042509
0.1171575 0.119231574 -0.08140092 0.081496544 -0.045711692 -0.019850984 0.12650548 -0.036396638
0.15979479 -0.04705041 0.118602775 -0.009476425 0.11587425 0.02316481 -0.12107442 -0.021806106
0.1461239 -0.09458564 -0.068164624 -0.18346643 -0.08704188 0.059135847 -0.024009753 0.09212481
0.09577055 -0.08858005 0.028647142 -0.15186404 -0.026248464 -0.10054056 0.073778585 -0.026957583
0.061868433 0.004989538 -0.046810165 0.08655653 -0.042170208 0.025987634 0.04556216 -0.17037259
-0.07158558 0.24901238 -0.08005587 0.07337927 -0.08249644 -0.037598062 0.18676114 -0.019426936
0.12428965 -0.16859014 0.051671483 -0.1188243 0.079256296 0.030773703 -0.011906287 0.018994184
0.049016472 0.056832243 -0.27166754 -0.014971084 -0.01613377 -0.07200453 -0.17200267 0.14080656
0.16005483 -0.009333395 -0.02201239 -0.03937726 -0.131068 0.006165405 0.020281551 0.12708043
-0.067148164 -0.04696764 -0.06569935 -0.01431802 -0.019657478 0.04338051 -0.060953118 -0.021267714
0.19705617 0.084857516 0.16184966 0.04810028 -0.15311426 0.14534855 -0.14736977 0.038379602
-0.25981483 -0.10350889 -0.120412365 0.032946438 0.1419251 0.092879355 -0.15414734 -0.16715357
-0.013710634 -0.19941749 -0.016010502 -0.13040604 0.028291514 0.09186586 0.10645195 -0.08342118
0.016510881 -0.0155715 0.16066861 0.11988814 -0.100429736 -0.14718929 0.10418693 0.059342504
-0.09782591 -0.03236289 0.17951517 -0.02886765 -0.027962936 -0.11571542 0.047727227 -0.22229713
0.02644161 0.13711904 -0.04215005 -0.09574098 -0.06877213 0.075775415 0.029084789 -0.024270138
00000000: 6910 49bd 879b 61bd c5d6 24bd aabf 18bc
00000010: 803a e83d 0a19 cc3d 2313 85bd 1247 00be
00000020: 51ef 33be 70e1 9f3d ebfe 853d ebbf 30be
00000030: 12ff 22bd e301 e2bd 80cf 823d ee3c 7f3d
00000040: 290d 04bb 04dd 3fbd 63a0 cfbc 3c3b 803e
00000050: 3058 12be 2070 15be 33ac 11bd bcbc 58bd
00000060: 9b22 4d3d 5ec8 54bd 782b e03d 8fb7 0c3d
00000070: 4bdf f6bd 60fd 9cbd 1d72 98bd 6ec1 c5bd
00000080: 0383 3b3d 3044 7f3b 715c d63d 55b2 c03d
00000090: be89 f7bb 81ce 0bbd e888 843a 929b 49bc
000000a0: 7b05 46bd 16ec 783c 6b2b 88bc 65c5 ffbd
000000b0: 2e57 19ba 79bb df3d 700d e13c 21ab 013d
000000c0: 1eb3 10be 0d8b 3d3d 09f6 afbd 0264 973d
000000d0: 29e0 13bd 0cee 65bb 60de 073d f9db a2bd
000000e0: 80dc 19be b210 ca3d 34b4 f03d 1978 8e3d
000000f0: aec8 a93d d642 3fbe ada6 1cbd f9dd 69bc
00000100: 842e 8e3c ae46 cbbb 6784 b7bd 66f4 d93c
00000110: e2f3 68bd 6a32 15be b4c9 49bd b026 6fbc
00000120: 45f1 803d aca3 45bd f857 f1bd ae46 fa3d
00000130: c06b febd d1ab a2bd 70d6 54bd 5adf 8fbe
00000140: 3405 d5bc c177 473d 9861 45bd a2f8 393d
00000150: 3093 73be 0769 1bbe 40f6 e8bd 410a f3bd
00000160: b385 823d b1d5 f1bc ba11 953d cb8b edbd
00000170: 5862 063d 34e2 cc3d 888d cf3d be15 aabd
00000180: d54b b6bd 74a7 57bc 03bb a83d a771 9cbb
00000190: 1f0e 003d ec76 09be 4733 153e 1636 e3bd
000001a0: 5345 22bd 61c9 04be d376 983d a907 5a3d
000001b0: d1d2 cb3d fa77 913d 212a b63b f4cc 15bd
000001c0: b6a4 4cbc 064e d8bd 92e8 233c fa77 af3d
000001d0: 7974 7fbd 11d5 083e 9c21 903d b116 21bd
000001e0: 42ad a93d 42d9 20bd 8b43 b13c f799 bbbd
000001f0: 45ee 793d bbcf d8bd 65e0 1bbe 7f81 d5bd
00000200: 45f0 ef3d af2f f43d 87b5 a6bd a9e7 a63d
00000210: 2f3c 3bbd 889e a2bc a78a 013e a414 15bd
00000220: 3fa1 233e eeb7 40bd 03e6 f23d 0243 1bbc
00000230: 7b4f ed3d 21c4 bd3c def5 f7bd b8a2 b2bc
00000240: 81a1 153e 1eb6 c1bd e599 8bbd a0de 3bbe
00000250: 0343 b2bd 6e38 723d 1ab0 c4bc efab bc3d
00000260: 5a23 c43d 7569 b5bd 69ad ea3c 3f82 1bbe
00000270: 0507 d7bc 36e8 cdbd 3a19 973d 26d6 dcbc
00000280: c169 7d3d 477f a33b 04bc 3fbd 8d44 b13d
00000290: abba 2cbd 05e4 d43c 639f 3a3d 2776 2ebe
000002a0: 769b 92bd 1afd 7e3e 55f4 a3bd df47 963d
000002b0: e5f3 a8bd 6d00 1abd 503e 3f3e 3d25 9fbc
000002c0: 928b fe3d e5a2 2cbe 7aa5 533d 285a f3bd
000002d0: 2051 a23d 2219 fc3c 9612 43bc b199 9b3c
000002e0: 7fc5 483d edc8 683d 0218 8bbe 4749 75bc
000002f0: f82a 84bc 1c77 93bd 7821 30be 982f 103e
00000300: 6ae5 233e 19eb 18bc 5453 b4bc 0d4a 21bd
00000310: b136 06be 2a07 ca3b 7f25 a63c 5f21 023e
00000320: fa84 89bd 2461 40bd 618d 86bd 2196 6abc
00000330: b808 a1bc c3af 313d faa9 79bd a139 aebc
00000340: 18c9 493e c7c9 ad3d ebbb 253e cd04 453d
00000350: fcc9 1cbe 40d6 143e 1ae8 16be ee33 1d3d
00000360: 7306 85be 78fc d3bd c29a f6bd d8f2 063d
00000370: d054 113e 8837 be3d cdd8 1dbe 4e2a 2bbe
00000380: 91a2 60bc 1934 4cbe 7528 83bc 2989 05be
00000390: 9bc3 e73c 2b24 bc3d 7b03 da3d b9d8 aabd
000003a0: d441 873c 9b1f 7fbc 5086 243e ea87 f53d
000003b0: 1bae cdbd cab8 16be f55f d53d 2011 733d
000003c0: f358 c8bd f38e 04bd d3d2 373e da7b ecbc
000003d0: 8712 e5bc 35fc ecbd a07d 433d dca1 63be
000003e0: 139c d83c ef68 0c3e 88a5 2cbd d913 c4bd
000003f0: 67d8 8cbd 2430 9b3d 3943 ee3c 2bd2 c6bc

network_body._body_endoder.seq_layers.2.bias f4 [128]
-0.06795265 0.010588565 0.027569814 -0.035489537 -0.052239925 0.007147431 -0.03211929 0.018419636
-0.030916419 -0.02671252 0.00952219 -0.034870427 -0.04313572 -0.027122132 -0.013574914 -0.030404493
0.011395821 0.015388908 -0.02867298 -0.022305707 0.015855534 -0.005299872 -0.07547256 -0.04214738
-0.00024134794 -0.038175303 0.02039818 0.031789925 -0.014923243 -0.06446886 0.016056526 -0.035388615
-0.03743919 -0.050847467 -0.060871594 0.012178791 -0.05650432 -0.046524476 0.0023428206 -0.02313867
-0.040373933 0.02044669 -0.039751254 -0.06837147 0.033348165 -0.021918966 0.017418563 0.0160213
-0.011523845 -0.006814014 -0.023961715 -0.016039116 0.039549652 -0.05923502 0.01326375 -0.020380786
0.024098178 -0.032013137 0.011574478 0.014601926 0.0077559305 -0.042682204 -0.06286601 -0.0035383238
-0.037389953 0.012207147 -0.00081127876 0.019466871 -0.05101828 -0.024275636 -0.04230073 0.008488233
-0.042631853 -0.05445912 0.030563526 -0.0151238125 -0.04081911 -0.043561686 0.012452835 -0.046913262
-0.030602211 -0.0014433059 -0.048692707 -0.051097754 -0.009488253 -0.054095794 -0.051597416 -0.080192134
-0.03744374 -0.06103599 -0.016978411 -0.0110964505 0.028324453 -0.033138365 -0.005598992 -0.005949065
-0.0009421461 -0.032427434 -0.017643293 -0.05175533 -0.011302958 -0.0072262995 0.020697035 -0.061983533
0.004341455 -0.010770991 0.0045997393 -0.065575786 -0.05389507 -0.022326594 -0.012792494 -0.05091845
-0.020560982 -0.0059412005 -0.0027032075 -0.014465061 -0.02307877 0.030200407 0.0027534866 -0.016247706
0.017853249 -0.006583806 -0.041687604 -0.0077764257 -0.06536881 0.041047893 -0.008219292 -0.010757522
00000000: c22a 8bbd a97b 2d3c 17da e13c 7a5d 11bd
00000010: 88f9 55bd ff34 ea3b 848f 03bd c7e4 963c
00000020: 6e44 fdbc 37d4 dabc f602 1c3c 4bd4 0ebd
00000030: 15af 30bd 3c2f debc 5169 5ebc d812 f9bc
00000040: 8ab5 3a3c c221 7c3c 99e3 eabc 75ba b6bc
00000050: 77e3 813c 8caa adbb 5c91 9abd bba2 2cbd
00000060: 5812 7db9 b55d 1cbd 151a a73c 2736 023d
00000070: 9e80 74bc 4008 84bd fa88 833c a7f3 10bd
00000080: d659 19bd 6f45 50bd 7e54 79bd 8d89 473c
00000090: 1371 67bd 7390 3ebd 028a 193b 4f8d bdbc
000000a0: 235f 25bd d17f a73c 36d2 22bd 5706 8cbd
000000b0: 1698 083d 678f b3bc 60b1 8e3c 1a3f 833c
000000c0: 82ce 3cbc 1848 dfbb 5c4b c4bc 7764 83bc
000000d0: d1fe 213d 6ca0 72bd 3350 593c 9bf5 a6bc
000000e0: 8b69 c53c 3520 03bd e1a2 3d3c eb3c 6f3c
000000f0: 7625 fe3b 89d3 2ebd e5bf 80bd 39e3 67bb
00000100: 3526 19bd 7c00 483c ffab 54ba fd78 9f3c
00000110: 8bf8 50bd b3dd c6bc 8843 2dbd 3b12 0b3c
00000120: bd9e 2ebd 8710 5fbd 5c60 fa3c dec9 77bc
00000130: f031 27bd bd6d 32bd fa06 4c3c 1f28 40bd
00000140: 7db1 fabc 4f2d bdba 0172 47bd e14b 51bd
00000150: 9e74 1bbc 8d93 5dbd d057 53bd c63b a4bd
00000160: 9b5e 19bd e000 7abd 4f16 8bbc e3cd 35bc
00000170: af08 e83c 18bc 07bd c077 b7bb 60f0 c2bb
00000180: 5bfa 76ba a1d2 04bd ab88 90bc 66fd 53bd
00000190: 0b30 39bc 98ca ecbb d48c a93c 72e2 7dbd
000001a0: c442 8e3b d078 30bc 69b9 963b 994c 86bd
000001b0: 14c1 5cbd 43e6 b6bc 9c97 51bc dd8f 50bd
000001c0: 816f a8bc 67ae c2bb 4c28 31bb ddfe 6cbc
000001d0: b00f bdbc d866 f73c d773 343b e919 85bc
000001e0: fa40 923c f8bc d7bb 9fc0 2abd 63d1 febb
000001f0: 15e0 85bd d621 283d 36aa 06bc 5140 30bc

network_body._body_endoder.seq_layers.4.weight f4 [128, 128]
-0.020797541 0.06322082 -0.019295253 0.04502796 0.12971354 -0.11479693 -0.17876193 0.11068091
0.17148077 0.073052794 -0.06913797 0.23383589 0.0022020927 -0.08899478 -0.07542868 -0.046077646
0.14100339 -0.18454681 0.017867861 -0.015855648 -0.09959246 0.07853568 -0.14776768 -0.069373176
0.09447778 -0.04210896 -0.13042475 -0.041205637 -0.23339242 0.22555472 0.06440262 0.0810503
-0.20191169 0.06942757 -0.018220246 0.030324664 -0.10865418 -0.080577455 -0.24569154 0.005835926
0.0064414972 0.017172404 -0.09153497 -0.08467719 -0.0797428 0.059504185 -0.16492985 -0.1692438
-0.120379455 0.0063600703 -0.10604564 0.15697241 0.07549009 0.02919167 -0.045066904 -0.06883282
-0.06671244 0.16836533 0.09809629 -0.113780625 0.112744816 -0.041054387 -0.12851503 -0.15224871
-0.039904144 0.062136725 -0.08642664 0.105891384 0.021869222 -0.057940427 0.04144566 -0.057603247
0.070955195 -0.12807697 0.104992166 -0.0367464 -0.0051058414 0.1157441 -0.14421795 -0.20869924
-0.012397761 -0.016161036 0.10376661 -0.11020108 -0.21179286 0.008838217 0.041722834 -0.16758458
0.008704873 -0.097023904 -0.012880564 -0.022174489 0.048303 -0.06537013 0.20615771 -0.012159294
0.007308857 0.041240446 -0.009234566 -0.12352166 0.029099349 0.11892828 0.00627915 -0.11936451
-0.12477588 -0.17392007 -0.12009732 0.0068539483 0.1781744 -0.070001744 -0.080279194 -0.0026298314
-0.053836938 -0.053028088 -0.068433695 -0.007976387 0.19512692 -0.010641328 -0.0432731 -0.048192073
0.059318118 0.004947445 -0.20204313 0.0128570665 -0.13161713 -0.1051356 0.13095811 -0.033400454
0.011004236 -0.035289086 0.1607059 0.15038082 0.021227228 0.09130545 -0.037102625 0.12867318
-0.12991604 -0.13719977 -0.12643646 -0.018989192 -0.0018472204 0.03822696 -0.031563528 0.13347736
-0.054822877 -0.242278 -0.1346113 -0.093463816 0.053736396 0.03924874 -0.092856005 -3.505493e-05
-0.060420938 0.014568976 -0.010085665 -0.04978799 0.010212894 -0.18007898 0.08701512 -0.08006627
0.011081663 -0.12668082 -0.07625261 -0.0075762193 -0.12760183 -0.061395675 -0.06734454 -0.14090934
-0.021999732 -0.02584594 -0.142634 -0.0070491945 0.035289522 -0.025553202 0.07307476 -0.027570046
0.008902619 0.066051066 0.11369209 0.025568586 0.110054985 -0.15756974 0.11359543 0.048631407
0.12636118 -0.018582135 0.17173298 0.10179124 0.24283282 -0.077001534 -0.01667168 -0.08959499
-0.10034467 0.03397366 -0.073585905 0.15564121 -0.06515942 -0.1985022 -0.028652024 -0.008978827
-0.19525322 -0.02202446 -0.10765881 0.02178514 0.20094933 -0.08853093 0.04889958 0.06999601
-0.11913301 0.089324966 -0.03756198 -0.027072083 -0.044142675 -0.01332148 0.01747699 -0.029094977
-0.14172013 -0.12384769 0.025277216 -0.023274073 0.006127094 0.017429797 -0.06405945 0.23215044
0.18795696 0.017225767 -0.11483274 -0.25879696 -0.07458146 -0.028683122 -0.017254496 0.04910604
-0.053986832 0.028899381 0.18208216 0.07797011 -0.114394404 0.16615075 -0.10495728 0.034248885
0.09682356 -0.02631752 -0.025693057 -0.11971876 -0.1878184 -0.006514996 0.18279517 -0.03682434
0.14936197 0.07764838 -0.01159428 -0.10950942 -0.08563316 0.030820215 -0.011849706 -0.08570219
00000000: 9b5f aabc eb79 813d 1411 9ebc 3d6f 383d
00000010: a0d3 043e a71a ebbd 5e0d 37be acac e23d
00000020: a898 2f3e b49c 953d 3598 8dbd ad72 6f3e
00000030: fc50 103b e542 b6bd 5a7a 9abd eabb 3cbd
00000040: 3163 103e d7f9 3cbe 9f5f 923c b4e3 81bc
00000050: 22f7 cbbd 51d7 a03d 6950 17be 8613 8ebd
00000060: 917d c13d 727a 2cbd 118e 05be 3ec7 28bd
00000070: 6cfe 6ebe d1f7 663e 85e5 833d b3fd a53d
00000080: f0c1 4ebe 0b30 8e3d a042 95bc 6e6b f83c
00000090: 1586 debd cb05 a5bd 9096 7bbe 4c3b bf3b
000000a0: 3213 d33b 24ad 8c3c b076 bbbd 3c6b adbd
000000b0: 3150 a3bd a9ba 733d 5fe3 28be 3f4e 2dbe
000000c0: 8189 f6bd 2368 d03b 752e d9bd 60bd 203e
000000d0: 8c9a 9a3d 5e23 ef3c 1398 38bd 39f8 8cbd
000000e0: 88a0 88bd f667 2c3e b5e6 c83d d105 e9bd
000000f0: c1e6 e63d a528 28bd 7299 03be 16e7 1bbe
00000100: 8772 23bd 1483 7e3d 7300 b1bd 95dd d83d
00000110: 1527 b33c f152 6dbd edc2 293d 62f1 6bbd
00000120: f550 913d 9c26 03be 2206 d73d 6583 16bd
00000130: e74e a7bb 3e0b ed3d dfad 13be 41b5 55be
00000140: fb1f 4bbc 2664 84bc 9783 d43d 1bb1 e1bd
00000150: 3ae0 58be 2bce 103c 90e5 2a3d 4b9b 2bbe
00000160: e29e 0e3c 78b4 c6bd 0009 53bc 46a7 b5bc
00000170: 5ed9 453d c6e0 85bd 021b 533e c737 47bc
00000180: 237f ef3b beeb 283d 944c 17bc edf8 fcbd
00000190: c261 ee3c ac90 f33d 54c1 cd3b 6175 f4bd
000001a0: 7f8a ffbd 1a18 32be 95f5 f5bd 1697 e03b
000001b0: 5a73 363e 135d 8fbd 6b69 a4bd 4059 2cbb
000001c0: 1f84 5cbd fb33 59bd f726 8cbd 64af 02bc
000001d0: 5acf 473e f758 2ebc 223f 31bd 0d65 45bd
000001e0: 8ef7 723d 2d1e a23b 65e4 4ebe 72a6 523c
000001f0: a4c6 06be 5551 d7bd e219 063e eace 08bd
00000200: 1c4b 343c 4a8b 10bd 1690 243e 6efd 193e
00000210: b9e4 ad3c 5afe ba3d ecf8 17bd e7c2 033e
00000220: b608 05be 197e 0cbe 8f78 01be 398f 9bbc
00000230: 6e1e f2ba df93 1c3d c248 01bd 4aae 083e
00000240: f48d 60bd b917 78be 8bd7 09be f569 bfbd
00000250: b21a 5c3d 49c3 203d 4a2b bebd f207 13b8
00000260: f27b 77bd b7b2 6e3c 583e 25bc 7eee 4bbd
00000270: fb53 273c a066 38be fc34 b23d c9f9 a3bd
00000280: dd8f 353c 9eb8 01be 542a 9cbd ef41 f8bb
00000290: 0eaa 02be 087a 7bbd efeb 89bd 8a4a 10be
000002a0: c838 b4bc ddba d3bc a60e 12be eefc e6bb
000002b0: bf8b 103d f354 d1bc 38a8 953d 94da e1bc
000002c0: 4adc 113c c845 873d 66d7 e83d 3675 d13c
000002d0: 8264 e13d f659 21be b9a4 e83d ba31 473d
000002e0: d364 013e 9039 98bc c5da 2f3e ed77 d03d
000002f0: 2ba9 783e fbb2 9dbd 0c93 88bc 947d b7bd
00000300: 8281 cdbd f727 0b3d 35b4 96bd 6960 1f3e
00000310: 4d72 85bd 2944 4bbe a6b7 eabc ee1b 13bc
00000320: 76f0 47be a46c b4bc 397c dcbd c076 b23c
00000330: a9c5 4d3e b44f b5bd ed4a 483d 115a 8f3d
00000340: 02fc f3bd 02f0 b63d 97da 19bd 46c6 ddbc
00000350: f3ce 34bd 5642 5abc e82b 8f3c 9758 eebc
00000360: 151f 11be dca3 fdbd 2a12 cf3c 45a9 bebc
00000370: cac5 c83b efc8 8e3c 9a31 83bd d8b8 6d3e
00000380: ca77 403e 0d1d 8d3c 6d2d ebbd 0981 84be
00000390: 2abe 98bd def8 eabc 4d59 8dbc 6a23 493d
000003a0: 4c21 5dbd 65be ec3c bf73 3a3e cbae 9f3d
000003b0: 9d47 eabd 6c23 2a3e d8f3 d6bd 8f48 0c3d
000003c0: 6e4b c63d d797 d7bc 3f7a d2bc 1c2f f5bd
000003d0: 7753 40be bf7b d5bb a82e 3b3e 1ed5 16bd
000003e0: 58f2 183e 1d06 9f3d eff5 3dbc 7a46 e0bd
000003f0: 7060 afbd ad7a fc3c 4525 42bc a184 afbd

network_body._body_endoder.seq_layers.4.bias f4 [128]
-0.021179823 0.034252692 -0.06298347 0.04218529 -0.03462233 -0.021715803 -0.0059247394 -0.045699377
-0.00882959 -0.032770213 -0.031040657 0.010923294 0.016624212 0.0023757922 -0.043568183 0.022161663
-0.0047735223 0.052907314 0.0389137 0.03865976 0.048694935 -0.014059739 -0.011639264 0.020378813
2.4720475e-05 -0.030368922 -0.0001523036 -0.023332955 0.03337513 0.022950884 0.041432183 0.008554983
0.02695962 0.024652656 -0.03373718 0.013950478 -0.036085896 -0.0059548286 0.034314938 -0.009416959
0.0052030445 -0.03951718 -0.015297483 -0.007439859 -0.015962435 -0.02747764 -0.0058466676 -0.013023696
0.024075681 0.022666125 -0.035529625 -0.004980158 0.02764579 -0.006694493 -0.007818975 -0.05504213
-0.041274577 0.04096845 0.016981132 -0.037522625 0.02032154 -0.0066969944 -0.030523138 -0.04624766
0.024779595 0.00533917 0.04673036 0.020929797 -0.04213606 0.028413005 -0.0731236 0.004763589
-0.036794495 0.03967366 0.009348788 -0.0014601069 -0.06773421 -0.03617025 0.015131438 -0.039699182
0.01901511 0.03279445 -0.016010491 -0.06585984 -0.0266118 -0.056084625 -0.040729698 -0.017103687
0.03136818 0.00033389975 0.00043002202 -0.05943175 -0.004592407 -0.03691056 -0.0041751736 -0.0038746966
0.05042622 0.029788155 -0.02291563 -0.011025144 0.022653254 -0.03750366 -0.04603515 0.04646278
-0.007515648 -0.00375277 -0.040725425 -0.03541843 0.0032274204 0.0042147175 -0.024886562 -0.003125144
0.012833211 0.0049621393 0.016162314 -0.062997766 -0.04223048 -0.06057681 -0.03902427 -0.040263608
-0.025354616 -0.027556686 -0.040602095 0.013930291 -0.022792771 -0.049788542 -0.025408164 -0.03874846
00000000: 4f81 adbc 8d4c 0c3d 7afd 80bd 7cca 2c3d
00000010: 25d0 0dbd 57e5 b1bc 5124 c2bb 452f 3bbd
00000020: fca9 10bc 0f3a 06bd fa48 febc 9ef7 323c
00000030: 802f 883c 2eb3 1b3b 8d74 32bd 608c b53c
00000040: 356b 9cbb 57b5 583d f963 1f3d b259 1e3d
00000050: 5774 473d d25a 66bc 9db2 3ebc 78f1 a63c
00000060: d15e cf37 3fc8 f8bc b0b3 1fb9 c124 bfbc
00000070: 5cb4 083d 7e03 bc3c cbb4 293d 332a 0c3c
00000080: 6cda dc3c 5ef4 c93c ff2f 0abd 8c90 643c
00000090: cece 13bd b920 c3bb d28d 0c3d 9749 1abc
000000a0: 4d7e aa3b c4dc 21bd 4ba2 7abc 10ca f3bb
000000b0: a7c3 82bc ca18 e1bc 6795 bfbb 5761 55bc
000000c0: 5d3a c53c 4fae b93c 8387 11bd 9830 a3bb
000000d0: 6c79 e23c 7a5d dbbb 281b 00bc db73 61bd
000000e0: 880f 29bd 89ce 273d 041c 8b3c 53b1 19bd
000000f0: 5c79 a63c 7672 dbbb a90b fabc 306e 3dbd
00000100: 94fe ca3c 34f4 ae3b 5568 3f3d f774 ab3c
00000110: dc96 2cbd 64c2 e83c d3c1 95bd e117 9c3b
00000120: d3b5 16bd d980 223d a92b 193c 0f61 bfba
00000130: 3cb8 8abd 4227 14bd dae9 773c 9c9b 22bd
00000140: 93c5 9b3c 7953 063d 6f28 83bc 86e1 86bd
00000150: fd00 dabc feb8 65bd 2fd4 26bd 081d 8cbc
00000160: ec7b 003d 440f af39 9474 e139 b56e 73bd
00000170: e77b 96bb 872f 17bd e5cf 88bb 9fee 7dbb
00000180: b98b 4e3d 4a06 f43c 8fb9 bbbc cea2 34bc
00000190: 5193 b93c 709d 19bd 5a8f 3cbd c24f 3e3d
000001a0: d345 f6bb 08f1 75bb b4cf 26bd ea12 11bd
000001b0: 2183 533b 9d1b 8a3b e7de cbbc 37cf 4cbb
000001c0: 6342 523c 7199 a23b d466 843c f904 81bd
000001d0: def9 2cbd 641f 78bd ead7 1fbd 74eb 24bd
000001e0: 7cb4 cfbc 8fbe e1bc 624e 26bd e03b 643c
000001f0: e8b7 babc 12ef 4bbd c824 d0bc b5b6 1ebd

network_body._body_endoder.seq_layers.6.weight f4 [128, 128]
-0.02904404 -0.014667992 -0.08459865 -0.0638642 -0.0046624932 0.019669099 0.008379635 -0.0050470075
-0.005968075 -0.025696442 -0.044706978 0.07993121 0.32241303 0.05060241 0.012311625 0.018643014
-0.036060303 0.04127878 -0.11616406 0.13547528 -0.21324146 0.037776273 0.10670621 -0.15106602
-0.086212665 0.23260856 -0.06504981 0.0021086216 0.045150872 -0.064946756 0.048130378 0.15402862
-0.012794504 -0.0842293 0.0093646785 0.05184686 -0.048004612 0.14529899 -0.026181124 -0.06836978
-0.025803702 0.018636981 0.061400242 0.014653045 0.096792035 -0.121086754 -0.05973073 0.034460932
0.019408016 -0.07480519 -0.10656436 0.03053203 -0.06700938 0.05213815 0.15821694 -0.037808385
0.1954163 -0.055110324 -0.12819925 0.16278107 -0.20458278 0.042269252 -0.124010645 -0.027134467
-0.1433642 -0.046981327 -0.12243692 0.07242561 0.037414685 -0.00267652 -0.011031433 -0.11271035
0.09461054 -0.013752039 -0.110847235 -0.09828531 0.021182269 0.010154262 0.043908246 -0.10090567
0.03709965 -0.12341393 0.14905736 -0.0018105045 0.08373484 0.1723201 -0.10690479 -0.05556777
-0.07622175 -0.08754828 0.10970541 0.005272831 -0.059132706 0.12561058 -0.050752867 -0.031305395
-0.06859414 -0.044848982 0.06439424 0.05707902 -0.2571898 -0.1891225 -0.018662184 0.0054148114
0.016763443 0.040230997 -0.09465392 0.099338815 -0.059236545 -0.059060704 -0.007907756 -0.053174388
-0.0030392732 -0.06550877 0.06367166 0.062747866 0.15722874 -0.1054041 -0.16594557 0.08388488
0.05480203 -0.038495664 0.06783492 0.015936494 -0.11283836 0.15338883 0.064475894 -0.054402195
-0.22132216 0.17776631 -0.036750592 -0.068004824 0.027827539 0.0003949091 -0.07321665 -0.003767005
-0.051691517 -0.159327 0.060325038 -0.019025793 0.1935075 -0.028161243 0.03394858 -0.1164378
0.06218621 -0.09509882 -0.017701237 -0.13713257 -0.05128861 -0.06794936 -0.05299213 -0.004664354
-0.04322473 0.07510374 -0.03850236 0.101658896 -0.09645105 -0.05976054 0.008591443 -0.12577534
-0.07825445 -0.04709033 0.16241468 0.1290559 0.08475002 -0.048006166 -0.040427197 0.072331406
-0.012003783 0.1315537 -0.044453193 -0.09167599 -0.05749588 -0.15614502 -0.028215239 0.014087054
0.0689146 -0.0050301426 0.031647988 -0.17129979 0.027640264 -0.07890906 -0.04225002 -0.11988156
-0.03062657 -0.050771605 -0.121211216 0.105354756 0.01697457 -0.14845859 -0.011518085 0.14270787
0.05845747 -0.15159404 0.1356252 0.03554649 -0.04605851 0.040040772 0.22008148 -0.027984472
-0.17440942 -0.14358455 -0.024383254 0.108342715 0.18539077 -0.11720034 0.062099386 -0.006579434
-0.10083234 0.15746121 0.023099978 -0.08116808 -0.094399095 -0.09918405 -0.013194846 0.02992721
0.073280424 0.029502092 0.07724649 -0.15482873 0.08955527 0.01808845 0.09245412 -0.02494947
-0.099427454 0.009817061 -0.077197924 -0.14469945 -0.06520797 -0.0267271 -0.08619242 0.10630572
0.10271702 -0.055312052 0.001245676 0.053828325 0.0736213 -0.09167947 -0.06637951 0.18481816
-0.09583781 0.09723166 -0.029137839 0.07267992 0.0020246238 -0.021925284 0.08076457 0.055980954
0.120116614 0.13649242 -0.019739479 -0.022548253 0.06898373 -0.009336456 0.07700208 0.027304674
00000000: c4ed edbc 0452 70bc 0f42 adbd 3ccb 82bd
00000010: d4c7 98bb 1721 a13c bd4a 093c 5e61 a5bb
00000020: d78f c3bb 5881 d2bc aa1e 37bd f9b2 a33d
00000030: 5213 a53e 7944 4f3d b3b6 493c 3cb9 983c
00000040: f8b3 13bd f013 293d 6ce7 edbd 08ba 0a3e
00000050: f85b 5abe 4bbb 1a3d c988 da3d 0db1 1abe
00000060: 4490 b0bd f030 6e3e d638 85bd cd30 0a3b
00000070: 1ff0 383d ce02 85bd 5c24 453d aeb9 1d3e
00000080: 0aa0 51bc 6980 acbd 4f6e 193c 605d 543d
00000090: 7ca0 44bd 42c9 143e cc79 d6bc 7505 8cbd
000000a0: 4962 d3bc 95ac 983c d27e 7b3d 5313 703c
000000b0: e73a c63d 55fc f7bd 36a8 74bd e826 0d3d
000000c0: 8ffd 9e3c 7733 99bd 6a3e dabd 4f1e fa3c
000000d0: 373c 89bd d08e 553d 9f03 223e f7dc 1abd
000000e0: 361b 483e 5dbb 61bd aa46 03be 15b0 263e
000000f0: 267e 51be 8622 2d3d 4bf9 fdbd 1a49 debc
00000100: 11ce 12be 7e6f 40bd 35c0 fabd e153 943d
00000110: 2440 193d 8e68 2fbb 2fbd 34bc afd4 e6bd
00000120: 2cc3 c13d 3b50 61bc e003 e3bd cf49 c9bd
00000130: 7086 ad3c 105e 263c 22d9 333d a2a7 cebd
00000140: cdf5 173d 71c0 fcbd 7ea2 183e 734e edba
00000150: 2c7d ab3d ae74 303e e6f0 dabd 089b 63bd
00000160: 261a 9cbd 834c b3bd 3bad e03d b6c7 ac3b
00000170: 2335 72bd 0fa0 003e 3de2 4fbd 163a 00bd
00000180: 167b 8cbd 91b3 37bd 21e1 833d b1cb 693d
00000190: 62ae 83be 54a9 41be 70e1 98bc bb6e b13b
000001a0: 7d53 893c 42c9 243d ead9 c1bd 2672 cb3d
000001b0: 05a2 72bd a3e9 71bd 888f 01bc 63cd 59bd
000001c0: 8b2e 47bb 7629 86bd 4a66 823d f481 803d
000001d0: 9200 213e 1bde d7bd a3ed 29be d6cb ab3d
000001e0: 1878 603d a1ad 1dbd 09ed 8a3d 408d 823c
000001f0: cc17 e7bd f611 1d3e f00b 843d d6d4 5ebd
00000200: 47a2 62be 5f08 363e ca87 16bd 1d46 8bbd
00000210: 94f6 e33c cd0b cf39 9cf2 95bd dbdf 76bb
00000220: 7cba 53bd 9e26 23be 6317 773d fbdb 9bbc
00000230: d526 463e 68b2 e6bc ab0d 0b3d f176 eebd
00000240: f8b6 7e3d 2cc3 c2bd 2f02 91bc 7b6c 0cbe
00000250: 0114 52bd 0929 8bbd 470e 59bd 70d7 98bb
00000260: 6a0c 31bd fdcf 993d a7b4 1dbd 8a32 d03d
00000270: 2188 c5bd 78c7 74bd 20c3 0c3c 40cb 00be
00000280: de43 a0bd cae1 40bd 0950 263e 3b27 043e
00000290: 6b91 ad3d 1da2 44bd fd96 25bd 7d22 943d
000002a0: 84ab 44bc 03b6 063e 8d14 36bd 9fc0 bbbd
000002b0: cd80 6bbd 7be4 1fbe a523 e7bc 63cd 663c
000002c0: 1923 8d3d e5d3 a4bb 52a1 013d 3669 2fbe
000002d0: d66d e23c 139b a1bd 5b0e 2dbd 7784 f5bd
000002e0: 93e4 fabc e3f5 4fbd 963d f8bd 3cc4 d73d
000002f0: 410e 8b3c 8705 18be 5ab6 3cbc 0322 123e
00000300: 1a71 6f3d 783b 1bbe 55e1 0a3e 3299 113d
00000310: d9a7 3cbd cb01 243d 0a5d 613e b13f e5bc
00000320: 6298 32be d407 13be 64bf c7bc c9e2 dd3d
00000330: 14d7 3d3e bb06 f0bd ed5b 7e3d 4b98 d7bb
00000340: 3081 cebd 833d 213e 2a3c bd3c 733b a6bd
00000350: 5054 c1bd 0221 cbbd 322f 58bc e929 f53c
00000360: 0c14 963d 5fae f13c 6833 9e3d 6c8b 1ebe
00000370: c168 b73d 3b2e 943c 9658 bd3d d562 ccbc
00000380: 9fa0 cbbd bdd7 203c f219 9ebd 182c 14be
00000390: c28b 85bd cbf2 dabc a785 b0bd d0b6 d93d
000003a0: 4d5d d23d e48e 62bd f345 a33a 177b 5c3d
000003b0: c4c6 963d 72c2 bbbd fbf1 87bd f940 3d3e
000003c0: 9d46 c4bd 6421 c73d 7ab2 eebc 36d9 943d
000003d0: 8daf 043b a79c b3bc e567 a53d 494c 653d
000003e0: b3ff f53d abc4 0b3e b0b4 a1bc 1db7 b8bc
000003f0: 5847 8d3d eff7 18bc 44b3 9d3d 0dae df3c

network_body._body_endoder.seq_layers.6.bias f4 [128]
-0.06605982 0.051188573 -0.024690665 0.013912183 -0.011721794 0.027560515 0.045368783 0.011540266
0.032666586 -0.04529407 -0.053693265 0.014580448 0.00068835285 -0.057359383 -0.005070335 -0.04808866
-0.04962525 0.025103942 -0.05442257 -0.022992015 -0.0629996 0.007831404 -0.05987966 -0.016728535
0.020767983 -0.007033662 -0.004913267 0.007667143 0.041891947 0.039447173 0.028248971 0.030253682
-0.010123147 -0.061698392 0.004975972 0.016926575 -0.05932966 -0.03668676 0.030973518 0.030930929
0.01912168 -0.010986543 0.041978125 -0.05246994 -0.045616843 -0.0035992786 -0.058927037 0.0035076193
-0.019452743 0.01013009 0.043204047 -0.012927189 -0.014194093 0.008527268 0.029418737 0.023185907
0.04255411 -0.049846265 -0.050037574 0.0047038877 -0.05281505 -0.053393465 0.007011283 -0.047602344
-0.043992117 0.0155785335 -0.0485663 -0.012623293 -0.03543879 0.0149231795 -0.06805227 0.017023267
-0.04977377 0.04409769 -0.00059383834 -0.028327782 -0.05280573 0.04225588 -0.00021373386 -0.062477123
0.055651877 0.021568615 0.038882203 0.028839143 -0.051434994 -0.047519647 -0.061984576 -0.019319154
0.044898868 -0.0021595005 -0.035723925 0.016623527 0.050740514 0.03849786 0.03791551 -0.0006357097
0.016531248 -0.05896724 -0.050345533 -0.02313258 0.040780347 0.0069960556 -0.061292224 0.055084977
0.0037848877 -0.042037845 0.025744751 -0.036904972 -0.057050385 -0.05181295 0.0453112 -0.04415793
-0.04052604 -0.043270364 0.027424797 -0.055555258 -0.069085 0.021069787 0.019039923 -0.0071015377
-0.0510634 -0.011177327 0.016319767 0.026155662 -0.054493155 -0.03166016 0.0021040572 0.040890206
00000000: 5f4a 87bd 1cab 513d 1444 cabc edef 633c
00000010: c40c 40bc 97c6 e13c 9ed4 393d 6213 3d3c
00000020: 66cd 053d 4686 39bd 78ed 5bbd d5e2 6e3c
00000030: 9472 343a acf1 6abd 0e25 a6bb 9df8 44bd
00000040: d943 4bbd c8a6 cd3c 33ea 5ebd c059 bcbc
00000050: ef05 81bd 4a4f 003c 6044 75bd 480a 89bc
00000060: 9e21 aa3c a27a e6bb 79ff a0bb a83c fb3b
00000070: e496 2b3d 5c93 213d 636a e73c 92d6 f73c
00000080: 8edb 25bc 74b7 7cbd 7b0d a33b 9aa9 8a3c
00000090: a803 73bd db44 16bd 2dbc fd3c dc62 fd3c
000000a0: 12a5 9c3c e700 34bc 41f1 2b3d b8ea 56bd
000000b0: bad8 3abd e0e1 6bbb 7a5d 71bd 16e0 653b
000000c0: 5c5b 9fbc adf8 253c baf6 303d 8fcc 53bc
000000d0: 578e 68bc f4b5 0b3c 90ff f03c 5ff0 bd3c
000000e0: 384d 2e3d 992b 4cbd 33f4 4cbd 1223 9a3b
000000f0: 9854 58bd 1bb3 5abd e8be e53b adfa 42bd
00000100: 1431 34bd 1b3d 7f3c 75ed 46bd eed1 4ebc
00000110: 4428 11bd 5a80 743c fd5e 8bbd 6174 8b3c
00000120: 95df 4bbd c89f 343d d1ab 1bba aa0f e8bc
00000130: d24a 58bd 8014 2d3d bf1d 60b9 03e8 7fbd
00000140: 39f3 633d aab0 b03c f242 1f3d 1140 ec3c
00000150: 80ad 52bd f6a3 42bd 8ae3 7dbd 3443 9ebc
00000160: e0e7 373d 6886 0dbb 4053 12bd 102e 883c
00000170: 49d5 4f3d efaf 1d3d 4b4d 1b3d c1a5 26ba
00000180: 8a6c 873c a287 71bd 1e37 4ebd 8980 bdbc
00000190: 4b09 273d 2b3f e53b 8e0d 7bbd c9a0 613d
000001a0: e10b 783b e02f 2cbd a8e6 d23c ab29 17bd
000001b0: aaad 69bd d139 54bd 3d98 393d f2de 34bd
000001c0: a2fe 25bd 443c 31bd f8a9 e03c e98d 63bd
000001d0: 707c 8dbd 8c9a ac3c 9df9 9b3c 04b4 e8bb
000001e0: db27 51bd 1b21 37bc 08b1 853c 6644 d63c
000001f0: 3734 5fbd 15ae 01bd 39e4 093b 7d7c 273d

action_model._continuous_distribution.mu.weight f4 [1, 128]
0.042371497 0.0011309575 -0.0005381264 -0.004902735 0.00031256102 -0.02717552 -0.03903935 0.00093871175
-0.032777343 0.053761143 0.025181865 -0.0011864466 0.0017453302 0.055864695 -7.386132e-05 0.063030034
0.06326955 0.00080035283 0.044013258 -0.0012336709 0.05997338 -0.0015217521 0.060308933 0.0021824283
4.9974235e-05 0.00011155796 0.00046587948 0.0009744245 -0.037482314 -0.044510055 -0.02434592 0.00010264053
0.00011297035 0.05835846 0.00029366984 -0.00094676367 0.07142839 0.041817386 0.00036233888 -0.014086648
2.5700965e-06 -0.0012359803 -0.030483168 0.063134685 0.059949588 0.0011022805 0.041728504 -0.0012702123
9.753968e-06 -0.012858429 -0.056936696 -0.0017507299 -0.0002650985 -0.00050428533 -0.034511067 0.0003454485
-0.05991831 0.05923984 0.066864185 -0.0029326642 0.055165544 0.06093889 -0.0016007578 0.07756324
0.06673927 -0.010125773 0.070580706 -0.0006848654 0.0019118864 0.0011430808 0.03202004 -0.0008785572
0.080017075 -0.003547184 6.898357e-05 -0.0011479714 0.055654544 -0.03946534 0.0020618634 0.058412444
-0.067873225 -0.0017021504 -0.00013749582 -0.022308944 0.07014506 0.055903282 0.031258807 0.0002742913
-0.046214435 -0.0024548995 0.06297801 -7.5740754e-05 -0.05369739 -0.038882695 -0.010897366 -0.00017736753
0.0029497498 0.030917088 0.06733994 0.00025388724 -0.03523617 -0.005297751 0.04703355 -0.088542044
0.0013119477 0.05647474 -0.00046928218 -0.00042578773 0.05097325 0.039431237 -0.0034441089 0.07736463
0.0011080492 0.05930863 -0.02928467 0.06477606 0.036158048 0.00051002053 0.0035624208 -0.0003953068
0.05215176 0.0007691791 -0.00041939327 -0.0027809301 0.052268974 -0.00032147183 -3.4061228e-05 -0.035400365
00000000: bc8d 2d3d a33c 943a 0d11 0dba 1fa7 a0bb
00000010: 3bdf a339 329f debc bae7 1fbd e113 763a
00000020: 8941 06bd a534 5c3d 334a ce3c 8b82 9bba
00000030: 90c3 e43a 61d2 643d ffe5 9ab8 e415 813d
00000040: 7793 813d c5ce 513a 3f47 343d 20b3 a1ba
00000050: a6a6 753d 8775 c7ba 8006 773d 1207 0f3b
00000060: 6d9b 5138 39f4 e938 4941 f439 8570 7f3a
00000070: 0e87 19bd 2d50 36bd 1871 c7bc b740 d738
00000080: 7fea ec38 4809 6f3d b3f7 9939 3c30 78ba
00000090: 0c49 923d b548 2b3d 4df8 bd39 afcb 66bc
000000a0: ec79 2c36 9e00 a2ba d6b7 f9bc c24c 813d
000000b0: b38d 753d 657a 903a 82eb 2a3d 417d a6ba
000000c0: f9a4 2337 29ac 52bc 7436 69bd bf78 e5ba
000000d0: ebfc 8ab9 0432 04ba 7a5b 0dbd 501d b539
000000e0: e76c 75bd 79a5 723d 17f0 883d f131 40bb
000000f0: 44f5 613d 0f9b 793d 85d0 d1ba 7ad9 9e3d
00000100: 99ae 883d 92e6 25bc 9e8c 903d 8a88 33ba
00000110: 4398 fa3a 6dd3 953a 7227 033d fa4e 66ba
00000120: fedf a33d df77 68bb 46ab 9038 8777 96ba
00000130: 05f6 633d 69a6 21bd 5420 073b e341 6f3d
00000140: 1e01 8bbd b11a dfba c12c 10b9 3fc1 b6bc
00000150: 37a8 8f3d d7fa 643d 3c09 003d c1ce 8f39
00000160: 594b 3dbd 61e2 20bb 9dfa 803d 02d7 9eb8
00000170: cbf1 5bbd 7643 1fbd de8a 32bc bcfb 39b9
00000180: 9750 413b d545 fd3c 86e9 893d 2b1c 8539
00000190: cd53 10bd c298 adbb 40a6 403d 8855 b5bd
000001a0: a9f5 ab3a 0f52 673d fd09 f6b9 433c dfb9
000001b0: 54c9 503d a682 213d 8fb6 61bb 5971 9e3d
000001c0: f63b 913a 9bed 723d 67e6 efbc 50a9 843d
000001d0: 761a 143d e6b2 053a 8177 693b 2e41 cfb9
000001e0: 159d 553d bca2 493a 03e2 dbb9 4440 36bb
000001f0: fe17 563d 388b a8b9 f7dc 0eb8 f9ff 10bd

66 f4 [15]
0.29762095 0.29762107 0.19612911 0.42785785 0.42785764 0.2676409 0.2652609 0.2652605
0.16653097 0.08104365 0.08104178 0.03949342 0.49069226 0.49069205 0.22173609
00000000: c661 983e ca61 983e 12d6 483e 2f10 db3e
00000010: 2810 db3e 3a08 893e 47d0 873e 39d0 873e
00000020: 1887 2a3e 37fa a53d 3cf9 a53d dac3 213d
00000030: 043c fb3e fd3b fb3e c90e 633e

69 f4 [15]
0.45478562 0.45478582 0.19334039 0.4773649 0.47736454 0.19264156 0.4816785 0.48167896
0.19235346 0.056965753 0.056971982 0.017994994 0.49851394 0.49851382 0.14262593
00000000: a9d9 e83e b0d9 e83e 06fb 453e 2c69 f43e
00000010: 2069 f43e d443 453e 909e f63e a09e f63e
00000020: 4ef8 443e ec54 693d 745b 693d 3d6a 933c
00000030: 383d ff3e 343d ff3e 880c 123e
