car_ml/Assets/test_space/RollerBall.onnx (onnx, 73485 bytes, 7 tensors)

network_body._body_endoder.seq_layers.0.weight f4 [128, 8]
000000 07 d7 0c be 3a d4 08 bf b0 d7 11 3f c8 a6 64 bd
       -0.13753901 -0.5344883 0.5696974 -0.055823117
000010 d2 32 54 3e 1b 4d 6c bd 36 14 76 3d 4e 2f f7 bd
       0.20722511 -0.05769072 0.06007787 -0.120695695
000020 21 a5 07 3e aa a2 33 bf c7 7a 1a bf f5 14 be be
       0.13246585 -0.7017008 -0.60343593 -0.37125364
000030 a4 49 cf 3e e7 12 48 bd 30 4e 9c be 15 55 3a 3e
       0.4048587 -0.04884615 -0.30528402 0.18196519
000040 2d 8d d2 bd 6a 3b f6 be f8 e5 18 3f a5 8c 2b be
       -0.102808334 -0.48092204 0.59725904 -0.1675287
000050 74 d8 21 3f 66 4e 08 bf 8a 9e 19 bd d7 33 b3 3c
       0.63220906 -0.53244627 -0.03750471 0.021875305
000060 77 bc e0 3e 7d 57 bf 3d b8 f5 95 3c c8 16 67 bf
       0.43893787 0.09342859 0.018305644 -0.90269136
000070 6f 97 d5 3e 2e f4 26 bd ee ab 67 3e f9 d4 c6 bd
       0.41717097 -0.04076021 0.2262418 -0.0970859
000080 90 38 05 bf 4d 0a 82 be 53 a4 1e bc 43 41 80 be
       -0.5203943 -0.25398484 -0.009682733 -0.2504979
000090 ff c6 2f be 30 e2 1b bf b5 9d 00 be 2f a2 2a bf
       -0.17165755 -0.6089201 -0.1256016 -0.6665372
0000a0 c9 43 ce bc 12 0f bf 3d 9e 07 1f bd 98 9f bb 3e
       -0.025178807 0.09329046 -0.038825624 0.36645198
0000b0 c4 e0 9f 3e 7e 37 7a bd b6 e8 4a bb dd 93 9b 3e
       0.3122617 -0.061088078 -0.003096146 0.30386248
0000c0 ce 88 c8 bb 90 b6 ba be 6e 22 10 3e 50 dd 85 3e
       -0.006119824 -0.3646741 0.14075634 0.2614541
0000d0 1f 0a 40 bd 5d 65 66 be b8 64 dc bd 76 c3 08 be
       -0.046884652 -0.22499605 -0.10761398 -0.13355812
0000e0 00 38 ae 3e b9 ef 8d 3e 59 bb a0 3e 27 8e 74 bf
       0.340271 0.27721956 0.31392935 -0.9552941
0000f0 f2 1b 89 3e b2 20 d9 3e 27 2d b9 3e d1 93 d3 be
       0.26779133 0.42407757 0.3616726 -0.41323712
000100 e2 09 18 bf f6 e1 31 3e 71 62 62 be 8c 8c 11 3f
       -0.5939008 0.17371354 -0.22107865 0.5685508
000110 18 5c a2 be 44 65 ab be 31 8b e3 be 77 5e a3 be
       -0.31710887 -0.33475697 -0.44442132 -0.31908008
000120 e7 79 a8 3e d5 91 7b be 0b 22 77 3e 22 6e 87 3d
       0.32905504 -0.2456735 0.2413408 0.06612803
000130 4b 3f 0e 3f a3 33 d1 3e 07 9e 24 3e 28 2c 4f bd
       0.5556533 0.40859708 0.16075908 -0.05057922
000140 e4 a3 fe 3e ab 03 11 3d c9 13 60 bf 23 e3 c4 be
       0.49734414 0.03540389 -0.8753019 -0.38454542
000150 ef 46 19 3e d0 4b 0e bf cd 0b 34 be 4b 06 25 be
       0.14968465 -0.5558443 -0.17582627 -0.16115682
000160 ea 93 4c 3e 28 46 42 3f fd ec 85 3d ed 84 87 3e
       0.199783 0.758883 0.065393426 0.26468602
000170 5e cb b7 3b 86 08 00 be 5e 27 e6 bd 9e 9f 98 3e
       0.00560896 -0.12503251 -0.112379774 0.29809278
000180 73 5f cd 3e a5 b6 c7 bd 63 70 21 bf a7 f3 93 3d
       0.40111884 -0.097516336 -0.63062114 0.07224207
000190 96 f3 5c bc e6 f5 dc bd 9c e2 67 be 5d 08 da be
       -0.01348581 -0.10789089 -0.22645038 -0.42584506
0001a0 c6 2d 39 bf 89 c8 c6 3e 8c 64 57 3e d8 df 19 3e
       -0.7233547 0.3882487 0.2103445 0.15026796
0001b0 0d 97 69 be 93 e1 b9 3d 77 e8 3d 3f 1c 41 e4 be
       -0.22811528 0.09076228 0.7418284 -0.44580925
0001c0 48 c3 f9 be a2 15 6d bd 1d 07 14 bf 0e 37 30 bd
       -0.487818 -0.05788196 -0.57823354 -0.043021254
0001d0 a5 b2 b1 be e6 05 33 3f b2 f6 a2 3d 30 3c fd be
       -0.34706607 0.69930875 0.0795721 -0.49459982
0001e0 57 bc b2 be a5 4d 98 3d b9 ee b1 3d 5e ea 97 bd
       -0.34909317 0.074366845 0.08688111 -0.07417749
0001f0 37 a2 59 be c7 16 6e be b3 0b 6b be f3 80 a8 bd
       -0.21253286 -0.23250876 -0.22953682 -0.0822772
000200 7c 01 a5 3d 8f 69 2e 3e a5 fd 4c 3d 56 49 d3 3e
       0.08056924 0.17032455 0.05004658 0.41266888
000210 8d 9b ad 3e eb 7a 30 be c1 e4 08 bf 2a 4f 0e 3e
       0.33907738 -0.1723439 -0.5347405 0.13897386
000220 b5 46 03 3e f0 e2 e6 be 65 63 01 be 92 4c 12 3f
       0.12819941 -0.45095015 -0.12635572 0.5714809
000230 d5 03 bd be 62 f6 f0 be 0e e1 24 bf 1e 5e 62 be
       -0.36916986 -0.47062975 -0.64405906 -0.22106215
000240 c8 ff a0 bc 1e b1 30 bf 2e 3f 85 be 66 b8 31 3e
       -0.019653216 -0.6902026 -0.26024765 0.17355499
000250 ea 72 c5 ba 52 f2 22 be 1f 19 6b be c3 76 b0 3e
       -0.0015064154 -0.1591275 -0.22958802 0.34465608
000260 10 6f db 3d 10 29 43 3d f6 bf c9 3e a9 6a 8f bd
       0.10714543 0.047646582 0.39404267 -0.07002766
000270 25 c9 27 3f 81 f2 f9 bd ef b3 1f be a2 90 c7 bc
       0.655413 -0.12204457 -0.15595983 -0.024360958
000280 90 81 2b 3d 5a e1 56 be d1 c6 af 3e 9e 2a 29 bf
       0.041871607 -0.20984402 0.34331372 -0.66080654
000290 f1 8d c0 3d d5 c0 2f 3d b7 a4 d9 3e 7e 94 59 bd
       0.09402073 0.04290851 0.4250848 -0.05312013
0002a0 6a af e4 3e 70 91 b9 bd 71 26 a7 bd f1 0d 24 3f
       0.4466508 -0.09060943 -0.08161629 0.6408377
0002b0 ce e7 c8 3e 76 c8 60 be 8a e4 8b 3e cc 98 59 3d
       0.39239353 -0.2195147 0.273228 0.053124234
0002c0 46 c3 8f 3d 4d 83 ba 3e a2 01 0f 3f a1 08 8b bd
       0.07019667 0.364283 0.55861866 -0.06788755
0002d0 85 20 94 be 8f 04 48 bf 01 63 98 3e 86 83 ab be
       -0.2893106 -0.78131956 0.29763034 -0.33498782
0002e0 fe 37 0a bd 0e 61 b8 bd 84 39 a5 3e d5 88 78 3e
       -0.033744805 -0.09002887 0.32270443 0.24270947
0002f0 26 12 4d 3e ce 9c 40 3f 6d 50 bf 3e 8a eb a1 3b
       0.20026454 0.75239265 0.37366048 0.0049414085
000300 be 37 29 3e cb 0b aa be 41 a9 a7 3e 67 a9 64 3e
       0.1652517 -0.33212122 0.32746318 0.22330247
000310 a6 dd 38 bd 88 cc 27 bf 17 e1 e7 bc ff 04 b8 3d
       -0.045133255 -0.65546465 -0.028305573 0.08985328
000320 fe 58 c5 3d 06 6e 1e 3f 0c 24 d6 be e1 7e 82 bd
       0.096361145 0.6188663 -0.41824377 -0.063718565
000330 c7 ab 29 bd a6 a1 07 3e 9f 47 e7 3e f0 e0 1d 3e
       -0.041423585 0.13245258 0.4517183 0.15417838
000340 e2 fc ae 3d 93 45 8a 3b 65 32 f8 3e 71 ae 96 be
       0.08544327 0.0042197197 0.48475948 -0.29429963
000350 09 34 da bc f7 70 d2 3e d7 1d e2 be d9 8a 3e bd
       -0.02663614 0.4110181 -0.4416339 -0.046519134
000360 b5 ac ac 3e 70 30 46 3d 64 59 ab be f0 e9 f5 3e
       0.33725515 0.048386037 -0.33466637 0.48030043
000370 f5 9a 83 bc 6b b4 0e 3f bc 84 b4 3e c7 1e 86 bd
       -0.0160651 0.55744046 0.35257518 -0.06548839
000380 4c 51 e2 be 7c a1 e3 bd 79 49 c5 be 7f 77 1f be
       -0.4420265 -0.11114785 -0.38532618 -0.15572928
000390 eb 97 c3 be cd 77 56 3e 95 a2 00 3f 33 f8 09 3e
       -0.38201842 0.20944138 0.5024808 0.13473587
0003a0 69 e9 e2 3e 36 b2 15 3f 63 6c 05 3e c5 da 28 bf
       0.44318703 0.58475053 0.13029628 -0.65958816
0003b0 f8 70 4f be c6 28 50 3b 2c 9c 5c be cd 79 13 be
       -0.20257938 0.0031762584 -0.2154395 -0.14401932
0003c0 d6 fe 35 be e1 24 08 3e 6d 8c 12 3f 88 61 85 bd
       -0.17772993 0.13295318 0.5724552 -0.06512743
0003d0 7a ce 03 3f 04 70 9a 3e 3f aa 90 bd ad 0d 61 be
       0.51486933 0.30163586 -0.07063722 -0.21977873
0003e0 6c 52 8b be 51 4a 98 be 43 88 71 3e 35 9e ab be
       -0.2721132 -0.297442 0.23587136 -0.3351914
0003f0 a1 b7 dd bd c7 3b 1f 3f 45 b7 b8 bc 9f c9 d8 be
       -0.1082604 0.6220059 -0.022548327 -0.42341325

network_body._body_endoder.seq_layers.0.bias f4 [128]
000000 1f 43 26 bd 06 8a d8 bd dd 59 a3 3d 99 bf e2 3d
       -0.040591355 -0.10573201 0.079761244 0.110717006
000010 1d ec 23 3d 1e 11 3c bb a0 2e a7 bd f7 d3 d0 3d
       0.040020097 -0.0028696726 -0.0816319 0.10196679
000020 59 20 84 3c 10 3f 38 bd d2 c3 53 3d 37 bf 8b bd
       0.016128706 -0.044982016 0.05170042 -0.06823581
000030 fb 28 b4 bd 4f 80 48 bd 7a a2 8a 3c 02 c0 0a be
       -0.08796879 -0.04895049 0.016923178 -0.13549808
000040 01 a5 16 3c 44 00 55 bb f7 38 a7 bd 96 bd 0e 3d
       0.009194613 -0.003250138 -0.08165162 0.034848772
000050 2b aa 36 3d a4 96 3b 3c 5d 7f 0d 3d a9 55 84 3d
       0.04459588 0.01144949 0.03454529 0.06461651
000060 40 4c ce 3c 30 20 a6 3c cd a5 18 bd cb 54 c1 3b
       0.025182843 0.02027902 -0.037267495 0.0059000007
000070 f1 20 18 bd 2a 99 80 3d 55 e7 59 3d 9f e8 ce 3c
       -0.03714079 0.06279214 0.05319913 0.025257407
000080 d3 4f 22 be ad 97 c1 bd 16 56 d0 bc 54 5b 10 3d
       -0.15850763 -0.09452758 -0.025431674 0.035243347
000090 86 34 b7 bd b1 89 8e bd 16 ea a2 3d 68 8d 65 3d
       -0.08945565 -0.06959856 0.079548046 0.05604306
0000a0 ce 92 1a 3d 8d 82 06 bd 35 0c e8 bc 14 59 e6 bd
       0.03773766 -0.032839347 -0.028326133 -0.11247459
0000b0 f1 b2 11 bd 7f 54 e2 3c 1f f5 40 bd 92 c4 e9 3c
       -0.035571042 0.027628182 -0.047108766 0.028536115
0000c0 22 3e 46 3d 7e 64 97 bd 07 2c 95 3a ac 51 07 3e
       0.0483991 -0.07392214 0.0011380919 0.13214749
0000d0 15 ac 8a bd a5 18 46 3c 7e ff db 3d 83 56 1f 3a
       -0.06771103 0.012090837 0.10742091 0.000607826
0000e0 f3 8e d6 3c 83 59 7c bd 4c d0 5c 3d 83 f1 5f bd
       0.02619121 -0.061608803 0.053909585 -0.054673683
0000f0 2c ec 17 bc fb 96 bd 3c bf 69 60 3d 3d 8a 5f 3c
       -0.009272616 0.023143282 0.054788347 0.013643798
000100 1b 5d 0d bc d7 cc b9 3c 95 e0 b0 bd 3e 54 6a 3d
       -0.008628155 0.022680683 -0.086365856 0.057209246
000110 05 5a 75 3d 6d 7c e5 bd be e9 24 3d d6 0e 9a bc
       0.059900302 -0.11205373 0.040261976 -0.018805902
000120 cc 5b 6a 3d 6a 5c e8 3c f8 0a 60 3d 4c 06 d6 3c
       0.05721645 0.028364379 0.05469796 0.02612605
000130 bf c3 26 3d ae 5c 4d bd d2 c0 83 3d a8 87 89 3c
       0.04071402 -0.050137214 0.06433262 0.016788319
000140 33 7b ad 3d 7f c0 e3 bd 6c 89 80 3c 30 43 7a 3d
       0.08470764 -0.111207 0.015690528 0.06109923
000150 b9 6a 68 3d 65 6b aa 3a e2 0b 14 bd 56 08 f7 3c
       0.056742404 0.0013001977 -0.036144145 0.030155342
000160 5c e9 3f 3c fb 4a e3 3c 77 2a 5f 3d 03 cf f8 bc
       0.011713352 0.027745714 0.054483857 -0.030372148
000170 08 0c 70 3d 51 42 34 3c 8c fa bd 3d 9a 4f 39 bd
       0.058605224 0.011002139 0.09276304 -0.04524193
000180 d2 ab 25 3d b8 fe 14 3d b5 bf b7 3d a6 3d 88 3c
       0.040447064 0.03637573 0.08972112 0.016630959
000190 93 bb 45 3b 98 61 4e 3d f8 b9 a9 3d f6 18 ad ba
       0.0030171617 0.05038604 0.08287424 -0.0013206291
0001a0 dd c2 74 3d 0b b5 6d bd 64 51 25 bd 02 d1 eb 3c
       0.05975615 -0.058033984 -0.040360823 0.028786186
0001b0 01 84 a7 3c 94 db b8 bd cb 45 fc 3d f2 f5 72 3c
       0.020448687 -0.09026256 0.123179995 0.014829146
0001c0 e9 73 e4 3c af fc 13 be 0a 2d c1 3c d9 e0 ae 3d
       0.027887302 -0.1445186 0.023581047 0.0853898
0001d0 95 65 31 bc 9a 81 a0 bb 3e 1b d2 bb 4b 69 f2 3c
       -0.010827442 -0.004898262 -0.006411939 0.029591223
0001e0 6a d6 86 3d ba b2 14 3d 7c 09 f5 3c f4 88 d0 bd
       0.06583865 0.03630326 0.029911749 -0.10182372
0001f0 93 70 7e 3d 7e 6d c3 3d 9c 5d 30 3d 1f 93 a5 bd
       0.062119078 0.09542368 0.043058023 -0.08084702

network_body._body_endoder.seq_layers.2.weight f4 [128, 128]
000000 75 1c c2 3d a4 78 56 be 22 8a 24 bd 74 94 49 be
       0.09478084 -0.20944458 -0.040170796 -0.19685537
000010 50 eb f9 bd 03 bc 18 3e 76 8a ba bd b8 5f fb bb
       -0.122030854 0.14915471 -0.091084406 -0.0076713227
000020 c8 bd bf bc 76 13 11 3e 13 97 34 bc 8c 73 06 3d
       -0.023405924 0.1416758 -0.011022347 0.032825038
000030 b7 ba 03 bd 48 89 2a bd 66 38 87 3c 2b 7f 8a bc
       -0.032160487 -0.041634828 0.016506385 -0.016906342
000040 3e a1 a1 bd 14 df 27 bd 88 e0 10 be fb 6e 9a 3d
       -0.07892083 -0.04098423 -0.14148152 0.07540699
000050 3c 44 12 bd 1c d5 cf 3b f9 0a b4 3d 37 76 40 bd
       -0.035709605 0.0063425433 0.08791155 -0.04698774
000060 d0 9b 21 bd 27 a3 45 3d fa 35 ae 3d a1 bb 91 3c
       -0.039455235 0.048251297 0.08506389 0.017789664
000070 a2 cd 58 3d b7 e2 cb 3c 81 72 b6 bc e9 ac 0b bd
       0.05293048 0.02488838 -0.022271397 -0.034100447
000080 d1 87 e6 3d 86 0b 77 bd bf 6e 1d 3e 14 b7 a0 bd
       0.11256374 -0.060313724 0.15374278 -0.078474194
000090 50 d9 e4 bd 6a 72 d2 3d c7 38 a3 bd ca 6d fd 3d
       -0.111742616 0.10275729 -0.07969814 0.12374456
0000a0 18 fd 1d 3c 1f cb 59 3d 54 90 8d bd eb ac ba 3d
       0.009642862 0.053172227 -0.06912294 0.09115013
0000b0 04 c7 d7 3d 81 51 19 3e 44 94 cb 3d 55 8b 18 3d
       0.10536006 0.14972498 0.09940389 0.037242252
0000c0 6f a3 db 3c 4c 50 aa 3d ee a9 d6 bd b7 5f 22 bc
       0.02681133 0.08316097 -0.1048163 -0.0099105155
0000d0 87 ff 69 3b 24 85 ea bc 0a b4 99 3d 1b cc 7f 3d
       0.0035705285 -0.02862794 0.07505043 0.06245051
0000e0 f2 2b 6f 3e 98 4f 30 bd 62 42 28 bb a6 3c d1 bc
       0.23356608 -0.043044657 -0.0025674333 -0.025541615
0000f0 7a de 80 3d 37 9a 5d 3c ce ce 13 be d8 65 7c 3d
       0.06292434 0.013525537 -0.14434358 0.061620563
000100 af 5e 11 3e 51 fb 8a bd d1 55 34 bd b3 e3 6e bd
       0.14196275 -0.06786216 -0.044027153 -0.05832262
000110 05 ec 30 3e ed 9d 88 3c 4c 0f c5 3d 1e 7d 66 bd
       0.17277534 0.016676867 0.09622058 -0.056271665
000120 0b 6d 5b bd fa 78 0d be 74 21 44 3d 47 ed 61 3d
       -0.05357079 -0.1381568 0.047883466 0.055157926
000130 62 f5 bc bc 9f ed 42 bd e7 f1 27 3e b2 e9 a8 bd
       -0.023066226 -0.047589894 0.16400872 -0.08247699
000140 c3 65 ff 3d 82 03 15 be 4a fa a2 bd 67 1c 12 3e
       0.124705814 -0.1455212 -0.07957895 0.14268647
000150 f6 2a 33 3e 35 b1 a0 3c 44 84 d5 3c 1e 53 82 3d
       0.17496857 0.019615749 0.026064046 0.063635096
000160 62 07 35 be c5 67 03 bd d4 73 5b be 3f 45 8e 3b
       -0.17678598 -0.032081384 -0.21430904 0.004341751
000170 6d ff c3 bc 4d a6 60 bd 38 5a dd bd e5 b9 ec 3d
       -0.023925507 -0.054846097 -0.108082235 0.11558894
000180 48 9f 9a bc 66 90 43 3c 36 fd 8c 3c 82 f7 b6 3d
       -0.01887478 0.011936283 0.017210584 0.08933927
000190 42 04 37 3d d9 71 0c bd 76 69 82 3d 40 ac 0b 3d
       0.044681795 -0.03428826 0.06367771 0.034099817
0001a0 07 be d6 bd fb 8c 6a 3c 23 52 e2 bd 50 56 37 bd
       -0.104854636 0.014315839 -0.110508226 -0.04476005
0001b0 77 f5 82 ba 91 dd 75 3d 94 66 cd bd c3 15 02 3e
       -0.0009991367 0.060025755 -0.10029331 0.12703614
0001c0 90 a2 a4 3d ee 06 40 3d 38 74 0f 3e db 6b 62 3c
       0.08038819 0.04688161 0.14009178 0.01381966
0001d0 ba 09 3e 3d 35 57 89 3d c9 c8 2c 3e 50 e9 bf bd
       0.046395995 0.067060865 0.16873468 -0.09370673
0001e0 aa b4 b9 bc e8 21 03 bd 4e c9 55 3d 47 11 11 be
       -0.022669155 -0.032014757 0.052193932 -0.14166747
0001f0 8f 71 92 39 a2 ed ba bd a6 55 4f 3c 6e 46 01 3d
       0.00027931898 -0.09127356 0.0126546975 0.031561308
000200 a1 b7 21 be a5 87 16 be a3 ee 81 bd ec 4e 61 be
       -0.15792705 -0.14700182 -0.063443445 -0.22002763
000210 e4 72 8e bd 97 52 28 3c bc 5c c0 bc f0 1a ca bd
       -0.069555074 0.010273597 -0.02348172 -0.09868419
000220 ab 27 e4 3d ef e2 08 be 80 58 87 3d 6e b4 87 3e
       0.111403786 -0.13367818 0.06608677 0.26504844
000230 4c 2d 74 3e 28 b3 d0 3a e4 e4 6d bd c8 90 44 3d
       0.23845404 0.0015922533 -0.058079615 0.047989637
000240 0b 47 92 3d 75 93 05 3e 42 43 3f bb 46 bf 22 be
       0.071424566 0.13044532 -0.0029184376 -0.15893278
000250 57 82 3d bc 98 bd 29 3c d3 7c 31 be d7 0c 26 3c
       -0.01156672 0.010360144 -0.17332773 0.010134897
000260 a5 23 db 3d 08 56 49 3e d9 80 b6 3c 3b 86 12 3e
       0.10700158 0.19661725 0.022278236 0.14309017
000270 ed bb 12 3e c0 90 0b be b2 2a 21 bd 8d 6a 68 bd
       0.143295 -0.13629436 -0.039347358 -0.05674224
000280 f7 d4 92 bd 4b 49 36 bc e0 fd 83 bc d0 59 c1 bd
       -0.07169526 -0.011125873 -0.016112268 -0.094409585
000290 e1 27 8c 3d fb d2 42 be b3 fe fe 3d 16 26 2f be
       0.06843544 -0.19025795 0.12450924 -0.17104372
0002a0 36 44 05 be d4 65 73 bd 99 db 28 3e 42 de 30 be
       -0.13014302 -0.059423283 0.1649002 -0.17272285
0002b0 5c 9a 6b bd 32 18 7f be b5 ff 15 be 05 c2 4c 3d
       -0.057520255 -0.24911574 -0.14648326 0.04998972
0002c0 6a 8b 52 3d df 18 9c 3d 0a c2 06 3e 7a 4e d8 bd
       0.051402487 0.07621931 0.13159958 -0.10561843
0002d0 46 99 ab bd 47 93 02 bc b4 0e 7a bd 88 07 a7 bc
       -0.08378844 -0.007969684 -0.06104918 -0.020389333
0002e0 9a 8f 1b 3d ce f9 a6 bd 62 bc bb 3d 93 d0 c4 bd
       0.037978746 -0.08153115 0.091667905 -0.09610095
0002f0 7e 04 c4 3c 59 e4 a2 3c 26 18 02 bd 92 60 b6 3d
       0.023927923 0.019884275 -0.03176131 0.08905138
000300 17 07 6c bd 74 ee 8e bd c3 c5 69 bd ad d8 0a 3d
       -0.05762395 -0.06979075 -0.057073366 0.033898044
000310 eb 7c 08 3e 75 fb da bc c7 b9 bc 3c 8a ca a4 bd
       0.13328902 -0.026731232 0.023037804 -0.08046444
000320 9c a4 a4 3d 30 41 06 3e 1d 75 15 3e 9e 6d 70 3d
       0.08039209 0.13110805 0.14595456 0.05869829
000330 14 62 58 ba 62 39 15 3e 6d 89 7c 3c ce 62 5d ba
       -0.0008254361 0.14572671 0.015413624 -0.0008445204
000340 ea 8d 87 3d ce ea e3 bd a6 94 08 3d eb 1b 14 3e
       0.06618865 -0.1112877 0.033344887 0.14463775
000350 2c 27 4e 3d b3 5b 06 bb 90 c2 a3 3a 04 56 f2 3d
       0.050330326 -0.0020501434 0.0012493897 0.118328124
000360 6a fa 2f 3d d3 08 e8 bc 61 ae a1 3d 26 b3 04 bd
       0.042963423 -0.02832452 0.07894588 -0.03239741
000370 45 84 0f be f2 55 12 3e 9c a8 78 3d f5 26 a2 3d
       -0.140153 0.14290598 0.060707673 0.07917587
000380 63 31 6f bc 9f 13 c0 bd be 65 1a be 49 ec b3 bb
       -0.014599177 -0.093787424 -0.15077874 -0.005490814
000390 42 d6 cc 3d fb 6d 9b bd ff df 08 3e e8 a9 df 3d
       0.10001804 -0.075893365 0.13366698 0.10921079
0003a0 50 8a c1 3d 33 e3 24 bd fd 91 66 3d 8c c6 09 bd
       0.09450209 -0.040255737 0.05629157 -0.033636615
0003b0 84 7d c4 3d 97 6f a8 3c c7 3e 4f bd a1 33 1b 3e
       0.09594253 0.020561023 -0.05059698 0.15156414
0003c0 f3 26 a0 3d 6c 8a d2 3b 98 0c a3 3c 74 cc 29 be
       0.07819929 0.0064251926 0.019903466 -0.16581899
0003d0 60 c5 b3 3d bc b5 ba 3c c8 d3 f6 3d fe a4 7c 3d
       0.08777881 0.022791736 0.12052113 0.061680786
0003e0 c0 ed b6 3d f5 f7 4d 3d 33 de e6 bd df b1 23 3c
       0.08932066 0.0502853 -0.1127285 0.009991138
0003f0 22 6e 1b be 1a f6 26 be 7b c2 1f 3e 9b a3 62 3d
       -0.15178731 -0.16304818 0.15601532 0.055331808

network_body._body_endoder.seq_layers.2.bias f4 [128]
000000 01 10 fa 3c 18 16 e6 3c d6 13 2e bc b7 d9 c1 3c
       0.03052521 0.028086707 -0.010624846 0.023663385
000010 86 e0 63 3d 31 a3 82 3d 26 46 42 3d 2a 7a ad 3d
       0.055634044 0.063787825 0.04743018 0.084705666
000020 a8 59 13 3d ce 63 bd 3c 34 47 22 3d dc 7c e2 3d
       0.035974175 0.02311888 0.039618686 0.11058971
000030 d7 d7 48 3d 9e 1e e2 bb 32 69 88 3d 89 00 bd bb
       0.049033966 -0.0069006225 0.066606894 -0.005767886
000040 c1 d0 d7 bc 13 9d 88 3c f0 46 f4 3d 20 9a 69 bd
       -0.026344659 0.016676461 0.11927593 -0.05703175
000050 ee 91 a5 3c 32 6e e9 3d b3 e6 15 3d 42 ba 30 3b
       0.020211186 0.11397971 0.036596965 0.0026966487
000060 20 2f 35 3d 07 66 18 bd bb 92 b2 3d 3d 8c 2c 3c
       0.044234395 -0.037206676 0.08719393 0.010531482
000070 bb bf 2c bc d3 d9 65 3d 46 b0 b8 3c 71 8c e0 3d
       -0.010543759 0.056115936 0.022544991 0.10964287
000080 8a bb 80 bb 08 2d 10 3d b8 ee 90 3d 57 b8 01 bd
       -0.0039286064 0.035199195 0.07076782 -0.03166994
000090 d0 1f 8e 3d 24 59 01 3e 94 db 5b 3d a6 3c c6 3d
       0.069396615 0.1263166 0.053676203 0.096795365
0000a0 93 54 73 bc 28 82 08 bd 69 36 77 3c 97 49 92 bd
       -0.014851707 -0.03332725 0.015088656 -0.071429424
0000b0 95 e6 6d 3c d6 68 07 3e 05 b5 95 3d 66 ca b5 3c
       0.014520307 0.13223585 0.07309917 0.022191238
0000c0 47 57 ef 3d d7 41 99 3b db 0c 21 3d 00 53 ab 3d
       0.11686569 0.004677038 0.0393189 0.0836544
0000d0 89 ad 46 3d 85 b3 02 bd 77 d5 23 3c 0f 88 89 3d
       0.04850534 -0.031909484 0.009999624 0.06715404
0000e0 43 35 86 3d 4c fd ad 3b a9 06 9e 3b de fc 8b 3d
       0.065531276 0.0053097364 0.0048225713 0.0683534
0000f0 6b 0b b5 3d ca 0b 9b 3d b0 79 b0 3c 89 2a 6d 3d
       0.088400684 0.07570608 0.0215424 0.057901893
000100 a3 b6 a3 3c 67 16 89 bc 9e 9c 92 3d 81 3a b4 bd
       0.019984549 -0.016734315 0.071587786 -0.08800221
000110 90 b2 80 3d d5 da 46 bc e4 a0 8b 3d 9a 38 d9 bc
       0.06284058 -0.012137135 0.06817797 -0.026516248
000120 07 c0 93 3d d7 ee c5 3d 84 11 b8 3d fa e9 17 3d
       0.07214361 0.09664696 0.08987716 0.03708837
000130 de e3 b8 3d a7 6e c7 3d dd 40 f3 bb f3 62 2e 3d
       0.09027837 0.09737902 -0.007423504 0.042574834
000140 26 e1 a1 3c 87 4a b2 3c 51 71 89 bd 12 bb 07 3d
       0.01976068 0.021764053 -0.067110665 0.03313739
000150 04 a3 40 3d b5 08 9d bc dd aa 63 3c 80 81 96 3d
       0.047030464 -0.01916919 0.013895717 0.07348919
000160 78 8b 36 3d 94 2b f6 3d 3c dd 89 bd 2f 30 0d 3d
       0.0445666 0.120200306 -0.0673165 0.03446978
000170 43 d4 97 3d ef 50 20 bd e4 99 24 3d a3 2a 72 3d
       0.074135326 -0.039139684 0.040185824 0.059122693
000180 c1 a3 29 3d b4 ea 3e 3d 73 0a 85 bd 35 4b cf 3d
       0.041415934 0.04661055 -0.06496134 0.101217665
000190 37 06 b0 3c e7 d9 aa 3d 5d 7b b2 3c d2 57 35 3d
       0.021487338 0.08342343 0.02178734 0.044273205
0001a0 b9 a1 a5 3d 21 a7 bb 3d 8a af c4 3d 00 ef 9f 3d
       0.08087487 0.09162737 0.09603794 0.078092575
0001b0 d7 33 74 3d 89 59 a6 bc c1 00 18 3c ef bb 42 3d
       0.05961975 -0.020306366 0.0092775235 0.04754251
0001c0 eb 03 ff 3b 7e 91 46 bd 2d 0f 8c ba 1d 29 9b 3d
       0.0077824495 -0.048478596 -0.0010685675 0.07576201
0001d0 4a 53 6d bc 27 a1 2f 3d e9 c3 1c 3d 83 af 10 3b
       -0.01448519 0.042878296 0.038272772 0.002207727
0001e0 9f 0f 2d 3d 1b 81 c2 3d 15 9f 98 bd a8 56 e2 3c
       0.042251226 0.09497281 -0.074522175 0.027629212
0001f0 2e 43 82 3d b1 ff 6e 3a 05 17 e2 3b 75 ea df 3d
       0.0636047 0.00091170805 0.006899717 0.10933391

action_model._continuous_distribution.log_sigma f4 [1, 2]
000000 0c 61 65 be e8 29 b6 be
       -0.22400302 -0.35578847

action_model._continuous_distribution.mu.weight f4 [2, 128]
000000 d9 a5 d7 3c c9 c5 b8 3d de 80 5c bb df 3f 27 3d
       0.0263242 0.090220995 -0.0033646147 0.040832397
000010 a7 ac 06 3e 70 4b 16 3d 0b f5 bc bc b8 0b 60 bc
       0.13151799 0.036693037 -0.023066064 -0.013674669
000020 ae 96 6b bc 81 46 a4 3d fd 58 8c 3c d9 d7 d3 bd
       -0.014379187 0.0802126 0.017132277 -0.10343904
000030 cd dd 5c 3d 68 12 7e 3d 8a 55 cb 3d a1 e9 a0 3c
       0.053922463 0.062029272 0.09928425 0.019642653
000040 45 47 5b 3c 1a b7 80 3d a9 e1 ab bd 1f d5 d6 3c
       0.013383691 0.06284924 -0.08392651 0.026224671
000050 c1 22 a8 bc ee 9f 99 bd 3b ad 5c 3c 0d 5e 3c 3d
       -0.020524384 -0.07501207 0.013469036 0.04598813
000060 84 ad 3c 3d a2 67 a7 3c f4 85 3d bd ce af eb bc
       0.046063915 0.020435158 -0.046270326 -0.028770354
000070 f5 b4 08 3d 27 27 7b 3d f8 98 29 3d 1f e2 0f 3c
       0.0333757 0.061316635 0.041405648 0.008781939
000080 43 2f 93 3d 90 36 29 3d e1 90 31 3d d3 aa c7 bb
       0.07186749 0.0413118 0.043351058 -0.006093362
000090 9b 1e bd bd 78 86 07 be 85 26 74 bc 48 e2 34 bd
       -0.09234353 -0.1323489 -0.014901762 -0.04416111
0000a0 0d 6f 83 3a 64 ca 35 3c db 3f 92 bb 5b 87 49 3c
       0.0010027603 0.011095617 -0.0044631786 0.012300338
0000b0 16 70 3b 3d 73 bc 0b 3c dd bb 1a 3d ef 6b 89 3d
       0.04576119 0.0085288165 0.037776817 0.0671004
0000c0 ff b9 c6 bd 5c 5e 85 3c 77 ad 5b bb e2 7e bb bc
       -0.09703445 0.016280346 -0.003352014 -0.02288765
0000d0 21 f1 e6 3c f7 01 3e 3d c3 94 9c 3d de 46 76 3c
       0.028191151 0.046388593 0.076455615 0.0150315445
0000e0 b7 ac b9 3c 1b 33 a8 3d bf 4a 12 bc a0 c6 48 bd
       0.022665365 0.082128726 -0.008928954 -0.04901755
0000f0 38 dd 16 bd ca a5 9c bc f2 0a b4 ba ec c0 11 3d
       -0.036832064 -0.019122023 -0.0013736172 0.035584375
000100 0e 97 22 3d d7 c7 8a 3d 8c 8d 20 bd 32 f7 a3 bb
       0.03969484 0.06776398 -0.03919749 -0.005003833
000110 26 38 c3 3d 51 db 08 3d 21 fa c9 3d e7 a5 ae 3d
       0.09532194 0.03341228 0.098621614 0.08527737
000120 58 2b 07 bd 96 d2 a2 bd 9e 97 49 bd 3e b1 c8 3c
       -0.03300032 -0.07950322 -0.04921686 0.024498578
000130 86 db f0 bc f4 ed c1 bd 3f 66 1e 3d 63 61 48 3b
       -0.029401552 -0.09469214 0.03867173 0.0030575625
000140 8f 57 82 3d 0b 9d 99 3d 52 e8 dd bb a6 42 bc 3d
       0.06364357 0.07500657 -0.0067720795 0.091924
000150 ff 06 e3 3d 85 1b 3e 3d 6b 6a 31 bd de 1d 8a bd
       0.11085319 0.046412963 -0.04331438 -0.06743978
000160 9d 96 f3 3d 9c 19 93 bd ba 3a 19 3d d4 88 14 3d
       0.118939616 -0.07182619 0.03740952 0.036263302
000170 f3 bd c6 bc 7b 9d 03 3b 7e 14 76 3d c9 02 9a 3d
       -0.024260497 0.002008288 0.060078137 0.075200625
000180 ed 06 7c 3d 1d 1e 81 3d 9e 5d 31 3d 02 20 d8 3d
       0.061530042 0.06304572 0.04330217 0.1055298
000190 6f b2 51 3d 40 1b 93 bd 70 d0 85 3d d8 38 2a 3d
       0.05119556 -0.07182932 0.06533897 0.041558117
0001a0 0f 38 92 3d 81 2d 06 bd 6f 5d b8 bd 04 49 8c 3c
       0.071395986 -0.03275824 -0.09002196 0.01712466
0001b0 6b b6 06 bd 57 c7 bd 3b aa 2c a9 3d 1a 49 8c bd
       -0.03288881 0.0057915854 0.08260472 -0.068498805
0001c0 14 a2 cd 3d 94 cf 14 3d 55 55 9d 3d 6c 59 96 bd
       0.100406796 0.036330774 0.076822914 -0.073412746
0001d0 5c 56 6f 3d 35 cb 5b 3d 9f 90 57 3d c4 02 a6 3d
       0.058431968 0.05366059 0.052628156 0.08105996
0001e0 f8 e1 4d bd 4d 90 c1 bd 4a 6b ef 3b 1d 5b a4 bc
       -0.05026433 -0.09451351 0.007306491 -0.020062977
0001f0 dd 08 50 bc 77 28 3c bb 4a e1 3e 3d c0 81 4d bd
       -0.012697426 -0.0028710642 0.04660157 -0.050172567
000200 ae c7 ce 3c df fd 17 bd fb e0 f7 3c b0 95 33 bd
       0.0252417 -0.037107345 0.030258646 -0.043843925
000210 0c 17 51 3d 9a b7 52 3d 74 a3 43 3b 7b 92 62 3d
       0.05104737 0.051444627 0.0029852064 0.055315476
000220 02 e3 27 3c b4 3b 05 3d 38 9f c2 bd 23 ef 96 3c
       0.010246994 0.03252764 -0.09503025 0.018424576
000230 c5 25 16 3d 0b fb 8f ba 3a a1 7b 3d 8e ed 25 3b
       0.036657114 -0.0010984851 0.061433055 0.0025318596
000240 66 ba 14 3d 44 1c ac bb 83 75 ff 3c 18 19 f4 bc
       0.036310576 -0.005252393 0.031183964 -0.029797122
000250 57 47 26 bc 4b e8 9c 3d 98 f9 c1 bd 18 ec 8a 3c
       -0.010148845 0.07661494 -0.09471434 0.016958281
000260 8b a7 13 3d de 53 f0 3b 09 71 07 3d cf 82 aa bb
       0.036048453 0.0073342165 0.033066783 -0.005203582
000270 e2 2d 7b bc ca 8f c1 3d f4 4a 0e bd 7b c1 d3 3d
       -0.0153307635 0.09451254 -0.03473945 0.10339638
000280 c7 0c 37 3c 2e 89 77 bd 29 35 88 3d 0f a5 a3 bb
       0.01117248 -0.06043356 0.066507645 -0.0049940418
000290 0c 06 56 3c bb 1c 83 3d f4 4d b8 bd 4e 96 ae bd
       0.013062965 0.06401964 -0.089992434 -0.08524762
0002a0 7b 57 23 bd f4 35 db 3b 64 bb 26 bd 1b a2 ed bc
       -0.03987835 0.0066897813 -0.040706053 -0.029007962
0002b0 c4 5f 2d bc 43 a0 a2 3d 47 e8 84 3d 56 88 18 3c
       -0.010581914 0.07940724 0.06489616 0.009309849
0002c0 25 0f b5 bd 10 31 06 bd 57 48 6e bd c2 86 5d bd
       -0.08840779 -0.032761633 -0.058174457 -0.054083593
0002d0 89 e9 4c bd 48 cc 81 bb 0f ea a0 3c a9 cf 96 3d
       -0.050027404 -0.00396112 0.019642858 0.07363827
0002e0 fd 2d 68 3d 88 33 23 bd f4 ce 89 bd 14 d7 1a 3d
       0.056684483 -0.039844066 -0.06728926 0.03780277
0002f0 be db 83 3d ec cb 90 bd 54 b9 17 3d 13 82 69 3d
       0.06438397 -0.07070145 0.037041977 0.057008814
000300 4e 7a 43 3d c4 98 f6 3c 0c da e2 ba 69 a4 9e bc
       0.04772406 0.030102141 -0.0017307415 -0.019365506
000310 3d 5b 6d bd 33 b9 39 3c 68 f8 36 3d 09 95 d4 3b
       -0.05794834 0.011335659 0.044670492 0.006487493
000320 82 47 84 bd 48 c2 0c 3c 48 8e 1e bd d6 94 52 3d
       -0.064589515 0.008591242 -0.03870991 0.051411472
000330 c0 9b 8b bd b8 5a 25 3d 4d d5 3a 3c eb 8d b7 bd
       -0.06816816 0.04036972 0.011403394 -0.089626156
000340 3b 9e e9 bb 26 2d c7 bb 50 fb dd 3b fb e2 ee bc
       -0.0071294582 -0.00607838 0.0067743436 -0.029160967
000350 a5 13 c9 bb e3 52 ce 3b 4f c8 0c bc d5 25 37 bd
       -0.006136375 0.006296502 -0.008592679 -0.044713814
000360 6c a1 89 3c ab e9 dd bd 64 d5 b4 ba 43 0c a0 3d
       0.016800605 -0.10835584 -0.0013796506 0.07814839
000370 10 85 8c 3d 85 ff 80 bc 76 25 09 3d 90 80 69 bd
       0.06861317 -0.015746841 0.03348299 -0.057007372
000380 d6 4c 47 bd b5 38 71 3d 57 75 98 3b 45 d2 9b 3d
       -0.04865726 0.05889197 0.00465266 0.07608465
000390 e6 fa c6 3c 5e f2 35 bd e0 af 7e 3c c7 9c 60 bd
       0.02428956 -0.044420592 0.015544862 -0.054837015
0003a0 4f d7 80 3d 2a 84 9e bd 5b dc 6e 3d 90 c0 a6 3d
       0.06291067 -0.07740052 0.058315616 0.08142197
0003b0 ea be 5b 3c 74 83 c4 bc 31 ba fb 3c 3f 37 3a 3d
       0.013412217 -0.023988463 0.030728431 0.045462843
0003c0 53 f8 1a 3d 5f 78 00 3c a6 1c 1b bd df 8a f5 3c
       0.037834477 0.007841199 -0.03786912 0.029973445
0003d0 ae 7a 5d b9 2e 46 01 3d e0 ca 99 bd 0b f5 e5 3a
       -0.00021121904 0.03156107 -0.075093985 0.0017544342
0003e0 a2 38 c5 3c 1e 3b 61 bd 72 b3 f9 3b 3e d2 64 bd
       0.024074856 -0.05498802 0.0076202685 -0.055864565
0003f0 bf 18 71 3d 74 80 de 3c 5e 7e 46 3c 2f 00 d9 bd
       0.05886149 0.02716086 0.012115089 -0.10595738

action_model._continuous_distribution.mu.bias f4 [2]
000000 25 54 15 bd f2 e2 0e 3d
       -0.0364572 0.0348844
